models/cnn_checkpoint.pth (torch, 451995 bytes, 10 tensors)

conv1.weight f4 [16, 1, 5, 5]
0	0x3e5d3654	0.21602756
1	0x3d9f5e55	0.07781664
2	0xbc257b71	-0.0101002315
3	0x3c9409b0	0.018071026
4	0x3e2929cc	0.1651985
5	0xbc61601e	-0.013755826
6	0x3c8d6717	0.017261071
7	0x3e415a5d	0.18882127
8	0xbd9794b5	-0.074014105
9	0xbe281680	-0.16414833
10	0x3e22f290	0.15912843
11	0x3d5d6868	0.054054648
12	0x3ddb77b5	0.10716192
13	0xbe0afaf1	-0.13572289
14	0x3e182a2f	0.14859842
15	0x3ccebb85	0.0252359
16	0xbdcab2cc	-0.09897384
17	0x3ebd1028	0.3692639
18	0x3d96bb6a	0.07359965
19	0x3d36dee7	0.04464617
20	0xbd9e941b	-0.077430926
21	0x3dc4aa71	0.096028216
22	0xbd411425	-0.047138352
23	0xbe2b8527	-0.16750012
24	0xbea5139c	-0.32241523
25	0x3b80ccc2	0.003930659
26	0xbe2a7a74	-0.16648275
27	0xbce5466b	-0.02798768
28	0x3d47f90d	0.048821498
29	0x3de80e99	0.11330909
30	0x3de4d211	0.111728795
31	0xbe1a745d	-0.15083452
32	0xbb93b838	-0.0045080446
33	0x3d88dd03	0.0668278
34	0xbea22063	-0.31665334
35	0xbe28e156	-0.16492209
36	0xbe80d276	-0.2516057
37	0x3e610b11	0.21976878
38	0x3e364fc8	0.17803872
39	0xbeb06d28	-0.3445828
40	0x3d9efc37	0.0776295
41	0xbdcae1a5	-0.099063195
42	0x3e21c32b	0.15797107
43	0xbe0e6ad7	-0.13907944
44	0xbc913549	-0.017725604
45	0xbe0d3df4	-0.13793164
46	0xbdd6637c	-0.10468194
47	0x3d04b0d2	0.03239519
48	0x3dcca476	0.09992306
49	0xbcfd74fa	-0.030939568
50	0x3e84a46e	0.259067
51	0x3e838a96	0.2569167
52	0x3e2e4b80	0.17020988
53	0x3e34e3fa	0.17665091
54	0x3d3634db	0.044484
55	0xbd1e465e	-0.038641326
56	0x3df798f4	0.1208972
57	0xbce4a39c	-0.027910046
58	0xbd818bd8	-0.06325501
59	0xbe2bda38	-0.16782463
60	0xbe89d9b8	-0.2692392
61	0xbf0f322f	-0.5593595
62	0xbeca6aca	-0.395346
63	0xbe8ee70e	-0.27910656
64	0xbe01f3ad	-0.12690611
65	0x3ca5d93c	0.020245187
66	0xbd01b710	-0.031668723
67	0xbd79d98c	-0.060998484
68	0x3d9f7dfc	0.077877015
69	0x3db0f76a	0.086409405
70	0x3e53d8e1	0.20688201
71	0x3dd4fc00	0.10399628
72	0x3e68debe	0.2274122
73	0x3de5fa42	0.112293735
74	0xbcf7e5ac	-0.030260883
75	0x3c514fc2	0.012775363
76	0xbe115340	-0.14191914
77	0xbe637ac5	-0.22214802
78	0x3d96dc7b	0.07366272
79	0x3dd0e3a0	0.10199666
80	0xbe513f4a	-0.20434299
81	0xbd40a92b	-0.04703633
82	0x3e3403be	0.17579553
83	0xbd9ced6a	-0.07662471
84	0x3d5a85af	0.053350147
85	0xbd3e55de	-0.046468608
86	0x3d881c23	0.06645992
87	0xbc374db7	-0.011187962
88	0x3d65d8ac	0.056114838
89	0x3d1e6c18	0.038677305
90	0x3cff346e	0.03115293
91	0x3d853756	0.06504695
92	0xbc8bcea1	-0.017066302
93	0x3d42c281	0.047548775
94	0x3cc4a3f2	0.024003956
95	0xbdb4e467	-0.08832627
96	0xbb89feba	-0.004211274
97	0xbdf2c3c1	-0.11853743
98	0x3db9e209	0.09076316
99	0xbe5a0fd6	-0.21295103
100	0xbe049cd8	-0.12950456
101	0x3d189d07	0.037259128
102	0xbe1d2596	-0.15346369
103	0xbe0f95d6	-0.14022002
104	0x3c4ba439	0.01242929
105	0x3e369241	0.17829229
106	0x3e1a02be	0.15040109
107	0xbe4be53c	-0.19911665
108	0xbda2d3d7	-0.079505615
109	0xbed4e158	-0.41578174
110	0x3eade6f6	0.33965272
111	0x3dbdd0d8	0.092683494
112	0xbd9d6be5	-0.07686595
113	0xbe4b5925	-0.19858225
114	0xbebc7822	-0.36810404
115	0x3e9aaed0	0.30211496
116	0x3ce04f45	0.027381549
117	0x3e0eee72	0.13958147
118	0xbdc5f911	-0.09666646
119	0xbe21e867	-0.1581131
120	0xbc8ceea4	-0.017203636
121	0x3e2a2e33	0.16619186
122	0x3e4e68ac	0.20157117
123	0xbdda7ff6	-0.10668938
124	0xbe4866c6	-0.19570455
125	0x3e4e77d5	0.201629
126	0x3e37c655	0.17946751
127	0x3e5d2aed	0.21598406
128	0xbc90e171	-0.017685624
129	0x3d8886e0	0.0666635
130	0x3d8ec593	0.06971278
131	0xbc966300	-0.018357754
132	0xbe04537e	-0.12922475
133	0xbdaef8e9	-0.085435696
134	0xbe51475c	-0.20437378
135	0xbddadb01	-0.10686303
136	0xbe02795d	-0.12741609
137	0xbe82122a	-0.25404483
138	0xbe73b064	-0.23797756
139	0xbe03235a	-0.12806454
140	0xbec2c63a	-0.3804186
141	0xbed3c7ec	-0.41363466
142	0xbe9ee8d0	-0.31036997
143	0xbe1aba46	-0.1511012
144	0xbd63aaa6	-0.055582665
145	0xbef1e6da	-0.47246438
146	0xbd08d027	-0.033401635
147	0x3e31cbc8	0.17362893
148	0x3e654749	0.22390474
149	0x3ea15ec7	0.31517622
150	0xbd66415e	-0.056214683
151	0x3d9d1aed	0.07671151
152	0xbe499767	-0.19686662
153	0x3d80f85b	0.0629737
154	0x3e018e06	0.12651834
155	0xbcab51f9	-0.020913111
156	0x3df1d7c1	0.1180873
157	0x3dae39b5	0.085071005
158	0x3e982196	0.29713124
159	0x3e947175	0.2899281
160	0x3d2a6881	0.04160357
161	0x3debe2cb	0.11517867
162	0x3e75041a	0.23927346
163	0xbe1ee106	-0.15515527
164	0xba8467bc	-0.0010101716
165	0xbde9340c	-0.1138688
166	0x3e585827	0.21127377
167	0x3d4416f5	0.047873456
168	0xbd9574d8	-0.07297677
169	0xbe6fdd30	-0.2342422
170	0x3c5ea698	0.013589524
171	0xbea39c69	-0.3195527
172	0xbe7fd854	-0.24984866
173	0xbe833db3	-0.2563301
174	0x3c4ebf5c	0.012618866
175	0xbe0e8f65	-0.13921888
176	0xbe6cd760	-0.23129034
177	0xbdff235d	-0.12457917
178	0xbe22ee75	-0.15911277
179	0x3d7a1cf1	0.061062757
180	0xbdf28285	-0.11841301
181	0xbe280d1c	-0.16411251
182	0xbb8cce8b	-0.004297083
183	0x3df160b7	0.11786025
184	0x3d949be6	0.07256298
185	0xbe837079	-0.25671747
186	0xbe47fdd8	-0.19530427
187	0x3e3f74a6	0.18696842
188	0x3da6a2e5	0.081365384
189	0x3c7172d3	0.014736849
190	0xbda8465e	-0.082165465
191	0xbea3a497	-0.3196151
192	0x3e376b63	0.17912059
193	0x3c9d0006	0.01916505
194	0xbce66ea3	-0.028128928
195	0xbe695250	-0.22785306
196	0x3c42eb21	0.011896879
197	0xbd9e154f	-0.07718908
198	0x3e6d9ae5	0.23203619
199	0x3df58f4c	0.11990222
200	0xbe382e65	-0.17986448
201	0x3ddab8e8	0.10679799
202	0x3d9fae6f	0.077969424
203	0x3d60696c	0.054788038
204	0x3d408081	0.04699755
205	0xbeb5a53b	-0.35477623
206	0xbe2d546d	-0.16926737
207	0xbdb256d9	-0.08707971
208	0x3e095ee9	0.13415112
209	0x3e49cf61	0.19708015
210	0xbca0a173	-0.019608235
211	0xbecfeb4f	-0.40609214
212	0xbe99eaeb	-0.3006204
213	0xbea6132d	-0.32436505
214	0xbddebd23	-0.10875919
215	0x3b79c6b0	0.0038112812
216	0xbbf9f931	-0.007628583
217	0xbd87032d	-0.065924026
218	0xbe0f57b2	-0.13998297
219	0xbe884736	-0.2661683
220	0x3eb11b48	0.34591126
221	0x3e153694	0.14571601
222	0x3e4a6b4f	0.19767497
223	0x3e068c81	0.13139535
224	0x39c41ed1	0.00037406993
225	0x3dc305de	0.095226035
226	0x3e4ece74	0.20195943
227	0x3e97cf6e	0.29650444
228	0x3eb21ff0	0.3478999
229	0x3c23605e	0.009971706
230	0xbe450dd6	-0.19243559
231	0xbdeab864	-0.11460951
232	0xbdbdab92	-0.0926124
233	0x3ea8a51b	0.32938465
234	0x3e69ec85	0.22844131
235	0xbe13aba0	-0.14420938
236	0xbe8b81c5	-0.27247444
237	0xbe683ef8	-0.2268027
238	0xbe26cf93	-0.16290121
239	0x3e4d068b	0.20022027
240	0xbe27d338	-0.16389167
241	0xbd10b468	-0.0353283
242	0xbeb6dea9	-0.3571675
243	0xbe2a06b3	-0.16604118
244	0xbda5a16d	-0.0808743
245	0x3d0a56fd	0.033774365
246	0xbe3e42a5	-0.1858011
247	0x3c534ddc	0.012896981
248	0xbdff4194	-0.1246368
249	0x3b89c48b	0.004204338
250	0xbd40019a	-0.046876527
251	0xbe52a459	-0.20570506
252	0xbe31a9c5	-0.17349918
253	0xbd483c4d	-0.048885632
254	0xbccc6f61	-0.024955453
255	0xbdb42198	-0.0879547

conv1.bias f4 [16]
0	0xbe610e6b	-0.21978156
1	0xbebc9440	-0.36831856
2	0xbe394671	-0.18093278
3	0xbe52b309	-0.20576109
4	0xbdb08c84	-0.08620551
5	0xbe845f6f	-0.2585406
6	0xbe124c4e	-0.1428692
7	0x3c065446	0.008198803
8	0xbe133a86	-0.14377794
9	0x3dde498d	0.108538724
10	0xbc07619d	-0.008263019
11	0xbe12d2a8	-0.14338171
12	0xbdb19d6a	-0.086726025
13	0xbe517b12	-0.20457104
14	0xbeba90ff	-0.36438748
15	0xbe11e7b4	-0.14248544

conv2.weight f4 [32, 16, 3, 3]
0	0xbcad1468	-0.021127895
1	0xbb89498c	-0.0041896757
2	0x3da14e1c	0.07876226
3	0xbd4cac5f	-0.049969073
4	0xbda8d673	-0.08244028
5	0xbd80c16e	-0.06286894
6	0x3d415bf4	0.047206834
7	0xbe08d0b7	-0.13360868
8	0xbe913463	-0.2836028
9	0xbd98ee2b	-0.07467302
10	0x3dcc6331	0.09979857
11	0x3d8d0928	0.06886512
12	0xbdbbf289	-0.09177119
13	0xbc31678c	-0.01082791
14	0x3d2d43fb	0.04230116
15	0x3e180222	0.14844564
16	0x3d5c6b79	0.05381343
17	0xbd3e2449	-0.046421323
18	0xbdaaeae2	-0.083455816
19	0xbe46e26a	-0.19422308
20	0xbd8ba409	-0.068183966
21	0x3e879872	0.26483494
22	0x3e02cec7	0.12774192
23	0x3dd466b6	0.10371153
24	0xbe9d4124	-0.3071376
25	0xbd5dc5d4	-0.05414374
26	0x3da9c0f3	0.08288755
27	0xbd8f3ca9	-0.06993992
28	0xbd5290fc	-0.0514078
29	0xbd8f3d75	-0.06994144
30	0xbc63d6d1	-0.013906197
31	0x3c44cf89	0.012012371
32	0xbdba9731	-0.09110869
33	0xbe426641	-0.1898432
34	0xbe93a326	-0.2883541
35	0xbc682c13	-0.014170664
36	0xbd0d74d6	-0.03453525
37	0x3d8a91bc	0.06766078
38	0x3e68be0a	0.22728744
39	0x3de796d9	0.11308069
40	0xbe59e784	-0.21279722
41	0xbbf4a6b0	-0.0074661598
42	0x3e22cbcd	0.15898056
43	0x3da8a2c9	0.08234174
44	0xbe035e71	-0.12828995
45	0xbd33aff8	-0.04386899
46	0xbdf16481	-0.11786748
47	0xbe626635	-0.22109301
48	0xbe6cfc7f	-0.23143195
49	0x3d6a69a3	0.05722965
50	0x3d00fccf	0.031491097
51	0xbe3efd4a	-0.1865131
52	0x3ce8beec	0.028411351
53	0x3de3fae6	0.111318395
54	0x3cc4c0bb	0.024017682
55	0x3bab4d1f	0.0052276994
56	0xbdd77ffd	-0.10522459
57	0xbe28aa9a	-0.1647133
58	0x3dd0cc84	0.10195258
59	0x3dd2f844	0.10301259
60	0xbe077124	-0.13226753
61	0xbeb78f7e	-0.35851663
62	0xbec53663	-0.38518056
63	0xbd9d20d1	-0.07672275
64	0xbdef7d95	-0.11693875
65	0xbd382987	-0.04496148
66	0xbd94c6f8	-0.07264513
67	0xbe27b1c9	-0.16376413
68	0xbe677479	-0.22603025
69	0xbe4c88db	-0.19974081
70	0x3d0e8c08	0.034801513
71	0xbd08c1ff	-0.033388134
72	0xbd902617	-0.07038515
73	0xbe0b94f5	-0.13631041
74	0x3d4ac028	0.04949966
75	0x3e2dff0f	0.16991828
76	0x3e746ba5	0.23869188
77	0x3c7c955f	0.015416472
78	0x3d8aaa30	0.06770742
79	0x398f1c43	0.00027296142
80	0x3e18967f	0.1490116
81	0x3d1c2e71	0.038130227
82	0x3dd95e4d	0.106136896
83	0xbe39664d	-0.18105431
84	0x3da657e5	0.08122233
85	0x3e7e6158	0.24841821
86	0x3e6b6e22	0.22991231
87	0xbdf7ab38	-0.12093204
88	0xbe464d8e	-0.19365522
89	0x3da3ba9f	0.079945795
90	0xbdab92cf	-0.08377611
91	0x3bdbe545	0.0067106807
92	0x3e0eb1f0	0.13935065
93	0xbb00ccdf	-0.0019653363
94	0xbe93ecb1	-0.2889152
95	0xbe883f5d	-0.26610842
96	0x3d90efee	0.07077013
97	0xbd8d2596	-0.068919346
98	0x3d3ec9de	0.046579234
99	0x3c266275	0.01015531
100	0x3e38eae2	0.1805835
101	0x3e22c10f	0.15893959
102	0xbe1cb9f2	-0.15305308
103	0xbdde47e7	-0.10853558
104	0xbcca6fcb	-0.02471151
105	0xbcb965c5	-0.022631535
106	0xbe3779d3	-0.17917566
107	0xbe89d5fe	-0.26921076
108	0x3dd61e92	0.104550496
109	0x3ddff6d3	0.1093575
110	0xbc5b7e13	-0.013396758
111	0x3ce235a0	0.027613461
112	0x3e39e2e7	0.18152963
113	0x3e195b58	0.14976251
114	0xbe1e2b8a	-0.15446296
115	0xbe4fa46f	-0.2027757
116	0xbda8d486	-0.08243661
117	0x3e0242a7	0.12720738
118	0x3dde06a6	0.10841112
119	0xbe51024c	-0.20411032
120	0xbe1afe34	-0.15136033
121	0xbdaa419b	-0.083132945
122	0xbe56d1fe	-0.20978543
123	0x3df021ab	0.11725172
124	0xbdc010c1	-0.093781956
125	0xbe6b99c2	-0.23007873
126	0xbcb698b2	-0.022289608
127	0xbe08fd40	-0.13377857
128	0xbe6f26cf	-0.23354648
129	0x3d798c5f	0.060924884
130	0xbdcf5cc9	-0.10125119
131	0xbe14df01	-0.14538194
132	0xbdfe0b83	-0.124045394
133	0xbeb6a374	-0.3567158
134	0x3d6c24a0	0.057652116
135	0x3e0695a6	0.13143024
136	0xbcc8854f	-0.024477629
137	0x3cf5222e	0.029923525
138	0xbd8ef3fb	-0.06980129
139	0xbd013ea6	-0.031553887
140	0xbbd3af31	-0.0064600934
141	0x3d02ced5	0.03193553
142	0x3d81812d	0.063234664
143	0xbe043f61	-0.12914802
144	0xbe09a75d	-0.1344275
145	0xbe240c19	-0.1602024
146	0xbd470d79	-0.048596833
147	0xbd4b9ccc	-0.04971008
148	0xbdfb8cb7	-0.122826986
149	0xbd8ea9f9	-0.069660135
150	0x3d7cee3a	0.061750628
151	0xbd9fbad2	-0.07799305
152	0xbdf2f9a3	-0.11864021
153	0xbd264457	-0.040592518
154	0xbd609289	-0.054827247
155	0xbd9c9cc5	-0.07647089
156	0xbdcece46	-0.10097937
157	0x3a443c55	0.0007485797
158	0x3d2a88af	0.041634258
159	0xbd82807a	-0.06372161
160	0x3c7cf5a3	0.015439424
161	0x3e001c9e	0.12510917
162	0x3d0d7d35	0.034543235
163	0xbd0f47e0	-0.034980655
164	0xbdcd2c70	-0.100182414
165	0xbe0a2c58	-0.13493478
166	0xbe2f7f47	-0.17138396
167	0xbe4739d9	-0.19455661
168	0x3ca75566	0.020426463
169	0xbd95b427	-0.07309752
170	0xbe07cd3c	-0.13261884
171	0xbe14d231	-0.14533307
172	0xbddc0a61	-0.10744167
173	0x3c98c2c5	0.01864756
174	0xbc919c46	-0.017774712
175	0xbcf1eeb6	-0.029532772
176	0x3d49c7c5	0.04926278
177	0xbdd64dc6	-0.10464053
178	0xbdb9acd0	-0.090661645
179	0x3d327ca8	0.043575913
180	0xbe35239a	-0.17689362
181	0xbd3bfa5b	-0.045893054
182	0x3dd3976b	0.10331615
183	0xbda31af5	-0.07964126
184	0x3c905786	0.01761986
185	0xbdc255b2	-0.09489001
186	0x3d930bb5	0.07179967
187	0xbd8d5343	-0.069006465
188	0xbdc1976d	-0.0945271
189	0xbd9df2a9	-0.077122994
190	0x3ccf3a9f	0.025296507
191	0xbdb6a341	-0.08917857
192	0xbe43198f	-0.19052719
193	0xbe02dd3c	-0.12779707
194	0xbe0adbb0	-0.13560367
195	0xbda361a8	-0.07977611
196	0xbc9b359f	-0.018946467
197	0xbe571334	-0.21003419
198	0xbccc3929	-0.0249296
199	0xbdb914e1	-0.090371855
200	0xbe0b5a15	-0.13608582
201	0xbcae7a7b	-0.021298638
202	0xbdb463c1	-0.08808089
203	0xbdd325ce	-0.10309945
204	0xbdded537	-0.10880511
205	0xbdb7c4b3	-0.08973064
206	0xbdf8d94c	-0.12150821
207	0xbc5689e3	-0.013094398
208	0xbc4d454d	-0.01252873
209	0xbd2ec944	-0.04267241
210	0xbe2289a3	-0.15872817
211	0xbdf0471d	-0.11732314
212	0x3cd9741f	0.026544629
213	0xbd90ef47	-0.070768885
214	0xbcce9d0b	-0.025221368
215	0x3e291249	0.16510881
216	0x3e042c71	0.12907578
217	0xbdf1e9c0	-0.118121624
218	0xbe69a7fc	-0.22817987
219	0xbc9ce2b8	-0.019151077
220	0xbe39fbab	-0.1816241
221	0xbe690663	-0.22756343
222	0x3cae403e	0.021270867
223	0x3d2d660f	0.04233366
224	0xbe0e45df	-0.13893841
225	0x3dd11807	0.10209661
226	0x3ce0c97e	0.027439829
227	0x3cdcd079	0.026954876
228	0xbdc61763	-0.096724294
229	0xbdd51aa2	-0.104054704
230	0xbe3880f5	-0.18017943
231	0xbe12a0ba	-0.14319125
232	0xbdc4ff7c	-0.09619042
233	0xbda8093f	-0.082048886
234	0xbe5a3143	-0.21307854
235	0xbdc1ce74	-0.09463206
236	0xbdc35c7d	-0.09539125
237	0xbd969419	-0.07352466
238	0xbe15fd16	-0.14647326
239	0xbe60c33e	-0.21949479
240	0xbd96c7c2	-0.073623195
241	0xbe1c46d0	-0.15261388
242	0xbe45c8fc	-0.1931495
243	0xbe26ec21	-0.16301014
244	0xbd2c70e2	-0.04209984
245	0xbd578970	-0.052621305
246	0xbb930f47	-0.004487905
247	0xbdbbb72c	-0.09165797
248	0xbc619d0e	-0.013770355
249	0xbd6cfb63	-0.05785693
250	0x3d487f8f	0.048949774
251	0x3c94e63c	0.01817619
252	0x3d0ea91e	0.03482925
253	0x3d6a1c3e	0.05715584
254	0x3c70d512	0.014699237
255	0xbd9bd75f	-0.07609438

conv2.bias f4 [32]
0	0xbe1d705f	-0.15374897
1	0xbd0ab4cb	-0.033863824
2	0xbd96067f	-0.07325458
3	0x3a953d6c	0.0011386103
4	0xbcded2ed	-0.027200187
5	0x3d2991ad	0.041398693
6	0xbd928cc2	-0.07155754
7	0xbddf41e6	-0.10901241
8	0xbd87ae2c	-0.066250175
9	0x3c70b0f9	0.014690631
10	0xbd89f893	-0.06736865
11	0x3b9c3b91	0.004767843
12	0xbd0cd5ad	-0.034383465
13	0xbd30981f	-0.043113824
14	0xbe12d94f	-0.14340709
15	0x3d2b68eb	0.041848104
16	0xbdce63f8	-0.10077661
17	0x3d07d802	0.033164985
18	0x3d9855db	0.07438251
19	0xbe183d0b	-0.14867036
20	0xbe195dec	-0.14977235
21	0xbd6f84f8	-0.05847642
22	0xbcafe2d2	-0.021470461
23	0xbd303aca	-0.043024816
24	0xbd06c291	-0.032900397
25	0x3db34423	0.087532304
26	0xbbb521a8	-0.005527694
27	0xbda45abe	-0.0802512
28	0xbcb3a551	-0.021929415
29	0x3d211957	0.039330807
30	0xbcca6e9a	-0.024710942
31	0x3d190fd5	0.037368614

fc1.weight f4 [120, 800]
0	0xbc9c7de6	-0.019103002
1	0x3d099a87	0.033594634
2	0xbd766eea	-0.06016437
3	0x3d1f0352	0.038821526
4	0x3d800e1d	0.06252692
5	0xbe34fb63	-0.17674021
6	0xbe607bda	-0.21922246
7	0xbe1a799f	-0.15085457
8	0xbe801e3e	-0.25023073
9	0x3e0a2121	0.134892
10	0xbbff00ec	-0.0077820923
11	0xbe33eb7a	-0.17570296
12	0xbc5d0dc7	-0.013492054
13	0xbe2e1571	-0.17000367
14	0x3e3fca8d	0.1872961
15	0x3df6cc7d	0.12050722
16	0x3dfa2b9b	0.12215348
17	0xbc00c7fe	-0.007860182
18	0x3bbcf03e	0.005765944
19	0x3dc4f7c1	0.09617568
20	0xbe296eb8	-0.16546142
21	0xbd50bce6	-0.050961398
22	0xbd8c657e	-0.068552956
23	0x3e09ddeb	0.13463561
24	0x3e2c918d	0.16852398
25	0x3c011621	0.007878811
26	0x3c2ea26d	0.0106588425
27	0x3c604680	0.0136886835
28	0x3df5d8d2	0.12004246
29	0x3d4a7be5	0.04943456
30	0xbc1fad2c	-0.009745877
31	0x3ae33bd2	0.0017336553
32	0xbd39fff0	-0.045410097
33	0x3e365e90	0.1780951
34	0xbd89d76d	-0.06730542
35	0xbc7f4fb5	-0.0155829685
36	0xbcba6bd7	-0.0227565
37	0xbde1c4d1	-0.11023868
38	0xbc600f61	-0.013675542
39	0x3ca48454	0.02008263
40	0xbd9d9a16	-0.07695405
41	0xbdb8ee6a	-0.09029849
42	0xbbca97c3	-0.006182642
43	0x3bb7012d	0.005584857
44	0x3d617ace	0.055048756
45	0xbaff3e35	-0.0019473495
46	0x3d1971ea	0.037462153
47	0x3d8892a9	0.06668598
48	0x3c37790c	0.011198293
49	0x3d6e7d8f	0.05822521
50	0x3cc53f0b	0.024077913
51	0x3dbdf3ea	0.092750385
52	0x3d136b4f	0.03599101
53	0xbde48d33	-0.11159744
54	0x3d8f8989	0.070086546
55	0x3c9f8ea3	0.019477194
56	0xbcb61d2e	-0.02223071
57	0xbd9c18f2	-0.076219454
58	0xbe322b5c	-0.17399353
59	0xbde65928	-0.11247474
60	0xbda9e39a	-0.08295365
61	0xbe635627	-0.22200833
62	0x3ddd2930	0.107988715
63	0xbe83be1f	-0.25730988
64	0x3deb1fd9	0.11480684
65	0x3e786d2c	0.24260396
66	0xbdceb429	-0.100929566
67	0xbe64e3b0	-0.22352481
68	0xbe2a7b02	-0.16648486
69	0x3d2cd80d	0.04219823
70	0x3e06ff4d	0.13183327
71	0xbcf49d3f	-0.029860137
72	0xbdfbc710	-0.122938275
73	0xbd8152e2	-0.06314637
74	0x3c1539bf	0.009108006
75	0x3dfce619	0.12348575
76	0x3d4e9a29	0.050439987
77	0x3e485628	0.19564116
78	0xbce57946	-0.02801193
79	0x3e224fa5	0.15850694
80	0xbe29aa4c	-0.1656887
81	0xbd94b50e	-0.07261096
82	0xbdee68d9	-0.11641092
83	0xbd259cfb	-0.04043291
84	0xbdcfb344	-0.10141614
85	0xbde274b5	-0.11057416
86	0xbdccb78f	-0.099959485
87	0x3c8b4995	0.01700286
88	0xbd905466	-0.07047348
89	0xbe641a15	-0.22275575
90	0x3e1dad53	0.15398149
91	0x3d556bb8	0.05210468
92	0xbe0c3f02	-0.1369591
93	0xbe30f5cc	-0.17281264
94	0x3e0d9d0f	0.13829444
95	0x3dfe6d3e	0.1242318
96	0x3c59a1c3	0.013283196
97	0x3d966c0c	0.07344827
98	0xbdb15ebb	-0.086606465
99	0xbcf1f2e7	-0.02953477
100	0x3cba0847	0.022709025
101	0x3e240e28	0.16021025
102	0x3d9ad8b2	0.075608626
103	0x3eb4e9bf	0.35334584
104	0x3dc92539	0.09821553
105	0xbe56ab01	-0.2096367
106	0xbca9fc2a	-0.020750124
107	0x3c941624	0.018076964
108	0x3e4840b3	0.19555931
109	0x3dd0aa1c	0.10188696
110	0xbe1fe1d2	-0.15613487
111	0xbdc8f633	-0.09812584
112	0xbe066166	-0.13123092
113	0x3cb5d35a	0.022195507
114	0x3c48f862	0.01226625
115	0xbe22dc3a	-0.15904322
116	0xbe035059	-0.12823619
117	0xbe00bbed	-0.12571688
118	0x3dc86fd9	0.09786958
119	0x3dd8aba8	0.10579616
120	0xbcdddd39	-0.027083026
121	0x3b6f8094	0.0036545144
122	0x3dade9f9	0.08491892
123	0x3dfbd094	0.122956425
124	0xbd489ad4	-0.04897578
125	0xbaca1240	-0.0015416816
126	0x3cb0334a	0.021508832
127	0x3c013178	0.007885329
128	0x3cc76e18	0.024344489
129	0x3ca1d0ce	0.019752886
130	0x3ca35db6	0.019942146
131	0x3c7a2f6c	0.015270095
132	0x3be5bde6	0.007011163
133	0xba729b40	-0.00092547014
134	0x3c938508	0.01800777
135	0xbb2a6d50	-0.0026005097
136	0x3bb08f30	0.005388163
137	0x3d606e09	0.054792438
138	0xbc822016	-0.01588444
139	0xbb991691	-0.0046718796
140	0xbbeaee20	-0.0071695
141	0xbc84d6dc	-0.016215734
142	0x3cef55f6	0.029215794
143	0x3cc9337a	0.024560679
144	0x3c5d1653	0.013494092
145	0x3ade2d40	0.0016950741
146	0xbc0325d2	-0.0080046225
147	0xba6a7600	-0.0008943975
148	0x3caf99b0	0.021435589
149	0x3d06fe5d	0.032957423
150	0xbad12d53	-0.0015958942
151	0xbe6d29c6	-0.23160467
152	0xbdf785ce	-0.12086068
153	0xbe346788	-0.17617619
154	0xbe2ff6a5	-0.17183931
155	0xbdc6dd9c	-0.097102374
156	0xbe1215e9	-0.1426617
157	0xbe8e1d99	-0.27756956
158	0xbd1d558e	-0.03841167
159	0xbe2737fb	-0.16329949
160	0x3d12a507	0.035801914
161	0x3e566162	0.20935586
162	0x3e8de116	0.2771079
163	0x3e023130	0.12714076
164	0x3dca6b29	0.098837204
165	0x3e18cf0e	0.14922735
166	0xbe40d94e	-0.18832895
167	0xbd134cad	-0.035961796
168	0x3e2b9fda	0.16760197
169	0x3e1d4ea5	0.15362032
170	0xbc057636	-0.008145859
171	0xbac23779	-0.0014817558
172	0xbdff130e	-0.12454806
173	0xbdabb787	-0.083846144
174	0xbdd6ad94	-0.10482326
175	0x3c8f1c63	0.01746959
176	0xbd4caa25	-0.04996695
177	0xbe15014e	-0.14551279
178	0x3c2acc62	0.010424705
179	0x3d7dc543	0.0619557
180	0x3dfc63cb	0.123237215
181	0xbd3125c6	-0.043248914
182	0xbd874f02	-0.066068664
183	0xbcb4998c	-0.022045873
184	0x3d8bb71c	0.06822035
185	0x3decba80	0.115590096
186	0x3d12da31	0.035852615
187	0xbe51313e	-0.2042894
188	0xbe1e583c	-0.15463346
189	0xbdc4d28e	-0.096104726
190	0x3e612f48	0.21990693
191	0xbd47f863	-0.048820864
192	0xbb525f62	-0.003210031
193	0x3c7a6ce1	0.015284748
194	0xbe4093a3	-0.18806319
195	0x3e825b29	0.25460175
196	0x3e8d58ca	0.27606803
197	0x3d94bcfd	0.07262609
198	0x3df38218	0.11890048
199	0xbdb6c091	-0.08923448
200	0xbdacc990	-0.084368825
201	0xbe3d7fff	-0.18505858
202	0xbd5e4a46	-0.05427005
203	0xba811c07	-0.0009850272
204	0x3e3bb9a5	0.18332537
205	0xbd388f83	-0.04505874
206	0x3e59a44f	0.21254085
207	0xba8625cc	-0.0010234653
208	0xbe1d17f1	-0.15341164
209	0x3e59a48d	0.21254177
210	0x3e253716	0.16134295
211	0x3c3585be	0.01107925
212	0xbbb0dd8b	-0.0053975037
213	0x3bb4d02e	0.005517981
214	0x3e446308	0.19178402
215	0x3d1e42a9	0.03863779
216	0xbdc4846b	-0.09595569
217	0xbe6997f3	-0.2281187
218	0x3e3feaf7	0.18741976
219	0x3e6502fd	0.22364421
220	0x3d9ae6ab	0.07563528
221	0xbb8cd183	-0.0042974367
222	0x3d4115a6	0.047139786
223	0x3dc9bc7f	0.09850406
224	0xbdd0db08	-0.10198027
225	0xbcf8f1da	-0.030388761
226	0xbd866b73	-0.06563463
227	0x3cf6d4ca	0.030130763
228	0xbde5eb2c	-0.11226496
229	0x3c04e2a6	0.008110678
230	0xbcbb1a7c	-0.022839777
231	0xbe8f772d	-0.2802061
232	0xbdaf2448	-0.08551842
233	0x3df19795	0.1179649
234	0xbd5a6557	-0.0533193
235	0x3cbef8f5	0.023312071
236	0x3deed7fd	0.1166229
237	0xbdc466b5	-0.09589902
238	0xbd9f5864	-0.07780531
239	0x3d2a4549	0.04156998
240	0xbe0637c3	-0.13107209
241	0xbd8bbcf8	-0.06823152
242	0x3ce45885	0.02787424
243	0xbd93b6a6	-0.07212572
244	0x3e07ecb6	0.13273892
245	0xbda3c66f	-0.079968326
246	0xbe285880	-0.1644001
247	0x3e2078be	0.1567106
248	0xbd5cdcc5	-0.05392148
249	0xbc8a5db3	-0.016890382
250	0xbb74b19d	-0.003733731
251	0xbd8ae238	-0.06781429
252	0x3e388b30	0.18021846
253	0xbdcf5f80	-0.10125637
254	0x3d80fd2e	0.0629829
255	0xbcd75498	-0.026285455

fc1.bias f4 [120]
0	0xbde19da4	-0.11016396
1	0xbcba6d34	-0.02275715
2	0x3cfd7cd3	0.03094331
3	0x3c04947b	0.008092041
4	0xbdeb5da9	-0.11492474
5	0xbd7a8c0b	-0.06116871
6	0x3d25eb2c	0.04050748
7	0x3d936693	0.07197299
8	0xbdb49f9d	-0.08819506
9	0x3cb8de9c	0.022567086
10	0x3abdc43d	0.0014478039
11	0xbd9e8c99	-0.077416606
12	0xbab7cac1	-0.0014022217
13	0x3bcb4e39	0.006204393
14	0xbd4854b2	-0.048908897
15	0xbdc4a009	-0.09600837
16	0xbc0b1a31	-0.008490131
17	0xbe0c0b11	-0.13676096
18	0xbd3dd948	-0.046349794
19	0xbc1e2daa	-0.009654442
20	0xbcb0a1e9	-0.02156158
21	0xbd489c94	-0.04897745
22	0x3d5955f3	0.053060483
23	0x3db5fd1b	0.08886167
24	0xbccf755b	-0.025324514
25	0xbc00da53	-0.007864553
26	0xbc9ac511	-0.018892797
27	0xbdae5f7d	-0.08514307
28	0xbd131777	-0.03591105
29	0xbd8e6c7c	-0.069542855
30	0xbd8fc8d1	-0.070207246
31	0xbd1cfd43	-0.038327467
32	0xbd207496	-0.039173685
33	0x3c6fb302	0.014630081
34	0x3d21bb3a	0.039485194
35	0x3d7eb8be	0.062187903
36	0xbda0d677	-0.07853406
37	0xbd2bebcd	-0.041972924
38	0xbd9df8b2	-0.077134505
39	0x3d060e26	0.032728337
40	0xbc6264df	-0.013817995
41	0x3a26ab65	0.0006357937
42	0xbca0c2c3	-0.01962412
43	0xbcbb987f	-0.022899864
44	0x3ba2eec6	0.0049723117
45	0xbdfded30	-0.123987556
46	0xbd68214d	-0.056672383
47	0xbce03dc0	-0.027373195
48	0xbd7913d3	-0.06080992
49	0xbc97d26e	-0.018532958
50	0xbce0f784	-0.027461775
51	0xbd36228c	-0.04446654
52	0xbc549993	-0.012976068
53	0xbd353e25	-0.04424872
54	0xbc952ec7	-0.018210782
55	0x3cf5c077	0.029999001
56	0xbd8bb442	-0.06821491
57	0xbd900d8e	-0.07033835
58	0xbd842242	-0.06451847
59	0x3ca72ad6	0.020406168
60	0x3d7c9879	0.061668847
61	0xbcc55cd2	-0.024092112
62	0xbd02aaf7	-0.031901326
63	0xbd71e2ba	-0.059054114
64	0xbd996912	-0.07490744
65	0xbce41e6d	-0.02784654
66	0xbd9fee93	-0.07809176
67	0x3d93137a	0.07181449
68	0xbbd2046f	-0.00640922
69	0x3bd8744f	0.006605662
70	0x3bf99ba8	0.0076174326
71	0xbd795814	-0.060875013
72	0x3deb3120	0.11483979
73	0xbd8cb973	-0.06871309
74	0x3c51b193	0.012798685
75	0xbd477e08	-0.048704177
76	0xbd20fa88	-0.039301425
77	0xbcf0db8b	-0.029401561
78	0xbd8dd480	-0.06925297
79	0x3c4c82b2	0.012482332
80	0xbdece558	-0.11567181
81	0xbdd295f8	-0.102825105
82	0x3bc5c455	0.0060353675
83	0x3be11d2d	0.006869933
84	0x3bf5bafd	0.0074990974
85	0x3b71a5d9	0.0036872535
86	0x3d407017	0.046981897
87	0x3d3144b6	0.04327842
88	0xbc85a41b	-0.016313603
89	0xbd2d7656	-0.042349182
90	0x3cac6976	0.021046381
91	0xbc1997ad	-0.009374541
92	0xbcc746da	-0.024325777
93	0xbcbae5dd	-0.022814685
94	0x3d9a548d	0.07535658
95	0xbd3f5fdd	-0.04672228
96	0x3cd5c0ff	0.026093004
97	0xbde3850d	-0.11109362
98	0xbd0cd142	-0.03437925
99	0x3cead07f	0.028663872
100	0x3c5a1ee5	0.01331303
101	0x3cb3ca3f	0.021947024
102	0xbd2481a3	-0.040162694
103	0xbd70bfb3	-0.05877657
104	0xbd53a138	-0.051667422
105	0xbc9252d6	-0.017861765
106	0xbc87f7b3	-0.016597604
107	0xbd25a689	-0.040442023
108	0xbcda7bf0	-0.026670426
109	0xbd436974	-0.04770799
110	0x3dbaabfd	0.091148354
111	0xbdd74363	-0.105109
112	0xbd74fd7a	-0.059812047
113	0xbbe0159c	-0.0068385135
114	0xbd6d8d0b	-0.057995837
115	0xbdf9a50c	-0.12189683
116	0xbc91e8b3	-0.017811155
117	0xbe1ab35f	-0.15107487
118	0x3d6eb673	0.058279466
119	0xbd1b6692	-0.037939616

fc2.weight f4 [84, 120]
0	0xbdf6063e	-0.12012909
1	0x3df363ee	0.118842945
2	0xbe399b20	-0.18125582
3	0x3e6d40f9	0.23169316
4	0x3c913835	0.017726997
5	0x3e055a07	0.13022624
6	0xbd1fb586	-0.038991474
7	0xbdb85d35	-0.09002153
8	0x3e1c7f4c	0.15282935
9	0xbd5fa9a6	-0.05460515
10	0xbe0db12b	-0.13837115
11	0x3db6b0e4	0.08920458
12	0x3d294960	0.04132974
13	0x3c3b7786	0.011442071
14	0xbe0cd591	-0.13753344
15	0x3dce0bba	0.100608304
16	0xbc82116d	-0.01587745
17	0x3d87b7a1	0.06626821
18	0xbbf03a50	-0.00733117
19	0x3cb70efd	0.022346014
20	0x3d586c4a	0.052837647
21	0x3d28ab19	0.041178796
22	0xbe405ad2	-0.18784645
23	0xbda8053f	-0.082041256
24	0x3da6d8f9	0.08146853
25	0x3da3c15d	0.079958655
26	0x3bbbf1d6	0.005735616
27	0x3e42f1c8	0.19037545
28	0xbd38be8d	-0.0451036
29	0x3def32ed	0.11679635
30	0x3e1c60ef	0.15271352
31	0x3d99d049	0.0751043
32	0xbd589bc9	-0.052882943
33	0x3e46a232	0.1939781
34	0x3dab180f	0.08354198
35	0x3d349656	0.044088684
36	0x3e38a519	0.1803173
37	0x3ca29727	0.019847466
38	0xbc1ff776	-0.009763589
39	0xbda993af	-0.082801215
40	0xbb244c5a	-0.0025069923
41	0x3d930fef	0.071807735
42	0x3de9da01	0.11418534
43	0x3d8bd4ce	0.06827699
44	0xbd2ccc4f	-0.04218703
45	0x3e0d54af	0.13801835
46	0xbdf6c2e1	-0.12048889
47	0x3dd7f5d7	0.10544937
48	0x3c9ee6a4	0.019397087
49	0xbdffb754	-0.12486139
50	0xbd22289e	-0.039589517
51	0xbb990c02	-0.004670621
52	0xbd0f0799	-0.034919355
53	0xbca44a37	-0.02005492
54	0x3d76338f	0.060107764
55	0x3d3fb17f	0.046800133
56	0x3d4c9847	0.04994991
57	0xbd8b31f1	-0.06796635
58	0xbd73ae82	-0.059492595
59	0xbd2018f4	-0.039086297
60	0xbcad6aab	-0.021169027
61	0xbe0e7fb8	-0.13915908
62	0xbc409907	-0.011755235
63	0xbd165fd7	-0.036712494
64	0x3c243b19	0.010023856
65	0x3db9a880	0.09065342
66	0x3d21a20b	0.039461177
67	0xbd6607fa	-0.05615995
68	0xbe08c44b	-0.1335613
69	0x3c47e2a1	0.012200029
70	0xbc22144f	-0.009892537
71	0x3e0c5b9d	0.13706823
72	0xbdffd921	-0.12492586
73	0x3d6a9db8	0.05727932
74	0xbc94b4a8	-0.01815255
75	0x3d5e7ec4	0.054320112
76	0xbd9655e1	-0.07340599
77	0xbc25077a	-0.010072583
78	0x3d68c67d	0.05682992
79	0x3d30cfd5	0.043166954
80	0xbdf4e5e8	-0.11957914
81	0xbdd546c8	-0.10413891
82	0x3d285bcd	0.041103173
83	0x3d37cab1	0.044871036
84	0x3d3a9c88	0.045559436
85	0xbc7b3ecf	-0.015334799
86	0xbd97d0ec	-0.074128956
87	0xbe777fa4	-0.24169785
88	0xbb9f50ff	-0.0048619504
89	0xbce62975	-0.02809594
90	0x3c8e1c89	0.017347591
91	0xbdef597e	-0.11686991
92	0xbd2aea4b	-0.041727345
93	0xbe2f06f4	-0.17092496
94	0xbc22bf33	-0.009933281
95	0xbb519180	-0.0031977594
96	0x3e165eb1	0.1468456
97	0x3e4e15bf	0.20125483
98	0xbde11d2d	-0.10991893
99	0xbda3c377	-0.07996266
100	0x39512661	0.0001994609
101	0x3e159190	0.14606309
102	0x3dcef58c	0.10105428
103	0x3d07e4f5	0.033177335
104	0xbe0731cc	-0.1320259
105	0xbd4cc183	-0.049989235
106	0x3cd5eb21	0.026113095
107	0x3dd9189a	0.106003955
108	0xbe0830d4	-0.13299876
109	0x3e3d7949	0.18503298
110	0xbea96b91	-0.3308988
111	0x3dc13b14	0.094350964
112	0x3befe360	0.0073208064
113	0xbdeb0783	-0.11476042
114	0x3d686f4a	0.05674676
115	0x3d50110d	0.05079751
116	0x3c56e6db	0.013116564
117	0x3e0ab943	0.13547234
118	0xbe05d3fe	-0.1306915
119	0x3d21d701	0.039511684
120	0x3cd1b384	0.025598295
121	0x3d10686c	0.035255834
122	0xbdb32439	-0.08747143
123	0x3cc0bc0a	0.023527164
124	0xbd46daee	-0.04854863
125	0xbb96ae2c	-0.0045983996
126	0xbd5c048e	-0.05371528
127	0xbe05d162	-0.13068154
128	0xbe1ff305	-0.15620048
129	0x3d9ce0d6	0.076600716
130	0x3d2d0b72	0.042247243
131	0x3d22176e	0.039573126
132	0x3a0e9680	0.00054392964
133	0xbda9f4e3	-0.082986616
134	0xbdfef2c2	-0.12448646
135	0x3d015008	0.031570464
136	0xbda1738f	-0.07883369
137	0x3ce0c6da	0.02743857
138	0x3cf412d0	0.029794127
139	0x3c95a898	0.018268868
140	0xbda0ef29	-0.07858116
141	0xbd4839ee	-0.04888337
142	0xbdf23129	-0.11825783
143	0xbd8fa423	-0.070137285
144	0xbdcc477e	-0.099745736
145	0xbdcbc3db	-0.09949466
146	0x3d73bcac	0.059506103
147	0x3d9325c8	0.071849406
148	0x3d929066	0.07156448
149	0x3d8049d0	0.062640786
150	0xba7b6664	-0.00095901475
151	0xbc597a18	-0.013273738
152	0x3d6c0d50	0.057629883
153	0xbd37e852	-0.044899292
154	0xbd97e7e1	-0.07417274
155	0xbe4515d6	-0.19246611
156	0x3d0d6d58	0.034528106
157	0x3c572808	0.013132103
158	0xbd6054de	-0.054768436
159	0x3d00b486	0.03142216
160	0x3d8ae3c4	0.06781724
161	0xbd27edc4	-0.040998235
162	0xbd926892	-0.071488515
163	0xbd97708d	-0.07394514
164	0x3db4b20d	0.08823023
165	0xbd0c73e3	-0.034290206
166	0x3cc31f3a	0.0238186
167	0xbd948c35	-0.07253305
168	0xbde07424	-0.10959652
169	0xbd51e72d	-0.051245857
170	0xbd6a637c	-0.057223782
171	0xbd87b227	-0.06625777
172	0x3b812b7e	0.0039419523
173	0xbd1b8a6a	-0.0379738
174	0x3d968ffe	0.07351683
175	0x3c4f1f58	0.01264175
176	0x3ce688fd	0.028141493
177	0xbd8da191	-0.06915582
178	0x3bf3ffc0	0.0074462593
179	0x3cc00434	0.023439504
180	0xbaceb56f	-0.0015770624
181	0x3d95b43b	0.07309767
182	0x3be1c310	0.0068897083
183	0xbd803faa	-0.06262143
184	0xbdec3d58	-0.11535138
185	0x3d4d8a65	0.05018081
186	0x3dafaecf	0.08578264
187	0xbd5e5e62	-0.05428923
188	0xbd73641c	-0.059421644
189	0xbcf71789	-0.03016259
190	0xbb825470	-0.003977351
191	0xbd375986	-0.04476311
192	0x3cac2422	0.021013323
193	0x3cbc14c4	0.02295912
194	0x3a0fada8	0.0005480894
195	0xbc358bba	-0.011080677
196	0xbc684998	-0.014177702
197	0xbd01bc02	-0.03167344
198	0x3d852a0e	0.06502162
199	0xbce94ae0	-0.028478086
200	0xbd0c93f2	-0.03432078
201	0x3d7cb5e0	0.061696887
202	0xbd6a912c	-0.057267353
203	0x3a298e00	0.0006467998
204	0xbb9c5d50	-0.004771866
205	0x3bb7b7d1	0.0056066294
206	0xbd2d3f61	-0.04229677
207	0x3b02fbb7	0.001998646
208	0xbd44b068	-0.048019797
209	0xbe0bad45	-0.13640316
210	0x3b836701	0.0040100818
211	0xbd104f05	-0.03523161
212	0xbd6d1728	-0.05788341
213	0xbe096841	-0.13418676
214	0x3c7962c5	0.015221302
215	0xbceba5c9	-0.028765576
216	0xbbfb3ffe	-0.0076675406
217	0xbe07d9b3	-0.1326664
218	0x3c811880	0.015758753
219	0xbdcbdb53	-0.09953942
220	0x3be7943f	0.007067233
221	0xbc8e5ace	-0.017377283
222	0x3d6944b1	0.056950275
223	0x3d9c732a	0.07639153
224	0xbd693048	-0.05693081
225	0xbd9dda0e	-0.07707606
226	0x3da4641e	0.08026908
227	0xbd976b6a	-0.073935345
228	0xbe3241d2	-0.17407921
229	0xbd4f3cf3	-0.050595235
230	0xbdae5329	-0.08511955
231	0xbe09abe9	-0.13444485
232	0x3d90d1bc	0.07071254
233	0x3bcf68ae	0.0063296175
234	0xbdb12d09	-0.08651168
235	0x3b3a25a0	0.0028403774
236	0x3ccc6d5c	0.02495449
237	0x3df70d50	0.12063086
238	0xbb2ef761	-0.0026697742
239	0x3b4e6760	0.0031494722
240	0x3d3906f7	0.045172658
241	0xbe00f06c	-0.12591714
242	0xbdb9f52c	-0.09079966
243	0xbe07a9fa	-0.13248435
244	0x3d2266ef	0.039648946
245	0xbdbbb9be	-0.09166287
246	0x3d8b728b	0.06808957
247	0xbe04bf2d	-0.12963553
248	0x3d7a47cb	0.061103623
249	0xbc3980a0	-0.0113221705
250	0xbd616d0d	-0.05503564
251	0xbcabb5e1	-0.02096075
252	0x3d8abee2	0.06774689
253	0x3b930b70	0.0044874474
254	0xbd8fb9a5	-0.07017831
255	0x3dbde936	0.09272997

fc2.bias f4 [84]
0	0xbcab4f58	-0.020911857
1	0xbdd8fc3f	-0.10594987
2	0xbda8045e	-0.08203958
3	0xbda92029	-0.08258087
4	0xbda3b0a9	-0.079926796
5	0xbd330c84	-0.043713108
6	0x3ca27c1b	0.019834569
7	0xbdf65ba6	-0.12029199
8	0xbc5e0da5	-0.013553058
9	0x3cc34b03	0.02383948
10	0x3dd907bf	0.105971806
11	0xbd7d2273	-0.06180043
12	0xbd861675	-0.06547252
13	0x3d7a94b4	0.06117697
14	0xbe2e558b	-0.1702482
15	0xbe02ca33	-0.12772445
16	0x3e0a8635	0.13527758
17	0xbdb0bb10	-0.08629429
18	0xbe052d5e	-0.13005587
19	0x3e2e4ca2	0.1702142
20	0xbcc78e06	-0.024359714
21	0x3d26007b	0.040527802
22	0xbd0ab29e	-0.03386175
23	0xbde248a0	-0.11049008
24	0xbe2c73b3	-0.16841011
25	0xbe168b0c	-0.1470148
26	0xbdcf8d6d	-0.10134397
27	0xbd698496	-0.05701121
28	0x3d1cf709	0.03832153
29	0xbc84e21e	-0.016221102
30	0x3e032fd7	0.12811218
31	0xbd8bebac	-0.0683206
32	0x3ce3ee92	0.02782372
33	0xbd4f41fb	-0.050600033
34	0xbe1433a6	-0.14472827
35	0xbe47645c	-0.19471878
36	0x3c8aef6e	0.016959872
37	0x3c36530d	0.011128199
38	0xbdaefb8f	-0.08544075
39	0xbde0aaec	-0.10970101
40	0x3d5350f9	0.051590893
41	0xbd8ed43e	-0.06974076
42	0xbdabfaca	-0.083974436
43	0x3e4fdc1a	0.20298806
44	0x3c825efa	0.015914429
45	0xbbb60516	-0.0055548055
46	0xbe4caf98	-0.19988859
47	0xbe74d113	-0.2390788
48	0xbd639067	-0.055557635
49	0xbd87cf78	-0.066313684
50	0x3ce609fd	0.028080935
51	0xbe3d1cf7	-0.1846808
52	0x3d752878	0.059853047
53	0xbe1bc122	-0.15210393
54	0xbd42f40a	-0.047596015
55	0x3dea1964	0.11430624
56	0x3d1f8f1c	0.03895484
57	0xbdbd1b57	-0.0923373
58	0x3dc7c7ec	0.09754929
59	0xbe1ca413	-0.15296964
60	0xbe060e85	-0.13091476
61	0x3e1f8178	0.15576732
62	0xbe235ba6	-0.1595293
63	0xbcc4a073	-0.02400229
64	0xbe53b03e	-0.206727
65	0xbdd77d3a	-0.10521932
66	0x3aceff59	0.0015792652
67	0xbe105d7a	-0.14098158
68	0xbc9d133e	-0.019174214
69	0x3ace45b7	0.0015737329
70	0xbdf04c57	-0.11733311
71	0xbd8d69a5	-0.06904916
72	0x3ddfa4b4	0.109200865
73	0xbddcfe6c	-0.107907146
74	0xbd2216e9	-0.03957263
75	0xbe0df3c7	-0.13862525
76	0xbdf0f3c3	-0.11765244
77	0x3aadfc87	0.0013274112
78	0xbd71d30c	-0.05903916
79	0xbc605378	-0.0136917755
80	0x3e18dacc	0.14927214
81	0xbe502fd1	-0.2033074
82	0x3d85c9cf	0.065326326
83	0x3cef5551	0.029215487

fc3.weight f4 [10, 84]
0	0xbcad3787	-0.021144642
1	0xbe5bfd2b	-0.21483295
2	0xbb8c66ba	-0.004284707
3	0xbe2f30a6	-0.17108402
4	0x3d97fe64	0.07421568
5	0xbe5230a6	-0.2052637
6	0xbe5a7637	-0.21334158
7	0x3c68fa82	0.014219882
8	0x3dd6891d	0.10475371
9	0xbe54f9b7	-0.20798384
10	0xbdf6bfb1	-0.12048281
11	0xbe90c9ca	-0.28278953
12	0x3c57ebae	0.013178749
13	0xbd7691f5	-0.06019779
14	0xbe3e66df	-0.1859393
15	0x3d812a7f	0.063069336
16	0x3c238a32	0.009981679
17	0xbea520de	-0.32251638
18	0xbedc47f4	-0.43023646
19	0xbdc41a9f	-0.0957539
20	0x3e195e69	0.14977421
21	0x3d1ac6fa	0.037787415
22	0x3dc649cc	0.096820444
23	0x3e0eac1a	0.13932839
24	0xbd9ef77d	-0.077620484
25	0xbd7070b9	-0.05870125
26	0xbe5c2bb4	-0.21501046
27	0xbdb53ec1	-0.0884986
28	0xbde1e880	-0.11030674
29	0x3d903bab	0.07042631
30	0xbddfa585	-0.10920242
31	0x3d5795c6	0.05263307
32	0xbe964e71	-0.2935672
33	0xbda87d67	-0.082270436
34	0xbe746da1	-0.23869945
35	0xbe1445da	-0.14479771
36	0x3dc10d67	0.094263844
37	0x3d340447	0.04394939
38	0xbe2c3f67	-0.16821061
39	0xbe2a10d0	-0.16607976
40	0x3d0faee8	0.035078913
41	0xbe5524f9	-0.20814885
42	0xbdc256dd	-0.09489224
43	0xbec77cb7	-0.38962337
44	0xbe79c404	-0.2439118
45	0xbe248be0	-0.16068983
46	0xbd3e5c41	-0.0464747
47	0xbd668d2a	-0.05628697
48	0xbe66dff3	-0.22546367
49	0xbe700a33	-0.2344139
50	0xbe209e2a	-0.15685335
51	0x3cf7fba5	0.03027136
52	0x3c7081d2	0.014679389
53	0x3e25b17c	0.16180986
54	0xbeb1460b	-0.3462375
55	0x3e132169	0.14368214
56	0x3dfa80a3	0.12231567
57	0xbc95f757	-0.018306417
58	0xbe8e5be4	-0.27804482
59	0xbd2c996e	-0.04213851
60	0xbc079b17	-0.008276722
61	0xbddbc336	-0.10730593
62	0x3d589953	0.052880596
63	0x3e009b78	0.12559307
64	0x3d58750c	0.052846
65	0x3cc29e38	0.023757085
66	0x3e1e4475	0.15455802
67	0xbe84d9c0	-0.2594738
68	0xbe73f78a	-0.23824897
69	0x3d04fce1	0.032467727
70	0xbcf912a8	-0.030404404
71	0x3db1da3b	0.08684202
72	0xbaf02a49	-0.0018323149
73	0x3d8643af	0.06555878
74	0xbdf458eb	-0.11931022
75	0xbc2df5cf	-0.010617687
76	0xbd0e7fc5	-0.03478982
77	0xbe7c9f97	-0.24670254
78	0x3ca041bf	0.0195626
79	0xbe2bb109	-0.16766752
80	0xbe8bbe9b	-0.27293858
81	0xbddd686b	-0.10810932
82	0xbe3a397c	-0.18185991
83	0xbe805ded	-0.2507166
84	0xbe34f700	-0.17672348
85	0xbd3f0a78	-0.046640843
86	0xbdcfd173	-0.10147371
87	0x3cbdcbf4	0.023168541
88	0xbe956863	-0.29181203
89	0x3e04e22c	0.12976903
90	0x3dea9e52	0.114559785
91	0x3d818d7c	0.06325814
92	0xbe6868b5	-0.22696193
93	0xbe1f5bb7	-0.1556233
94	0xbd49496b	-0.049142282
95	0xbe06aa27	-0.13150845
96	0x3c2d4778	0.0105761215
97	0xbe40b0d1	-0.1881745
98	0xbd96b911	-0.07359517
99	0xbe1565ef	-0.14589666
100	0x3da9dda3	0.08294227
101	0x3cfd25d9	0.030901836
102	0xbdb5f65a	-0.088848785
103	0xbe05c986	-0.13065156
104	0x3d3ac5e4	0.04559888
105	0x3cf0f104	0.0294118
106	0xbe7309ea	-0.2373425
107	0xbf1b4559	-0.6065269
108	0xbe902f04	-0.2816087
109	0xbe6b11f6	-0.2295607
110	0xbe213072	-0.15741137
111	0xbdbbc662	-0.09168698
112	0x3e247cc8	0.16063225
113	0x3e25bbba	0.16184893
114	0xbea9b1a4	-0.33143342
115	0xbeb5e8b9	-0.35529116
116	0xbc57e140	-0.013176262
117	0xbe481706	-0.19540033
118	0xbe4e124d	-0.20124169
119	0xbe4a4f46	-0.19756803
120	0x3daa2867	0.083084874
121	0xbe3b7847	-0.18307601
122	0xbe508d44	-0.20366389
123	0xbe130591	-0.14357592
124	0x3e2c2053	0.16809206
125	0xbe09cf8a	-0.13458076
126	0xbe30e58a	-0.17275062
127	0xbd5c1a44	-0.053735986
128	0xbe52fe8c	-0.20604914
129	0x3d646892	0.05576379
130	0xbd8d5737	-0.069014005
131	0xbe035842	-0.12826636
132	0x3dd3461c	0.10316107
133	0xbe612593	-0.2198699
134	0xbda604c6	-0.08106379
135	0xbe94c322	-0.29055125
136	0x3dc93b1c	0.09825727
137	0x3dd7840f	0.10523235
138	0x3e12b145	0.14325435
139	0x3cb1e4d6	0.021715563
140	0x3960a005	0.00021421917
141	0xbe9183b9	-0.2842081
142	0x3dda0c81	0.10646916
143	0x3d90180d	0.07035837
144	0x3d946479	0.07245726
145	0xbe5cb0be	-0.21551797
146	0x3d975010	0.073883176
147	0x3d8768de	0.06611799
148	0xbe0710e5	-0.13190039
149	0x3d25dd1a	0.040494062
150	0xbe9568f7	-0.29181644
151	0xbe2408ae	-0.16018936
152	0xbe9e2b64	-0.3089248
153	0xbdb0b777	-0.08628743
154	0x3d802ab2	0.062581435
155	0xbe8e5b22	-0.27803904
156	0x3d0b1a0d	0.03396039
157	0xbe94eecd	-0.2908844
158	0xbdab2828	-0.083572686
159	0xbe944de2	-0.2896567
160	0xbe652f16	-0.22381243
161	0xbe18fdbd	-0.14940543
162	0xbe8d90a8	-0.27649426
163	0x3dd9b7e6	0.10630779
164	0xbc70cfce	-0.014697982
165	0xbdafdaac	-0.0858663
166	0xbe97364c	-0.29533613
167	0x3d89d713	0.06730475
168	0xbbb69e2d	-0.0055730552
169	0xbd49eaba	-0.04929612
170	0xbd2fa1e8	-0.042879015
171	0x3de99f3b	0.11407324
172	0xbe0eb5e1	-0.13936569
173	0xbd292aed	-0.041300703
174	0xbe126bc0	-0.14298916
175	0x3cb95f75	0.022628525
176	0x3e0d81df	0.13819073
177	0xbd35d883	-0.044395935
178	0x3dc60a2c	0.09669909
179	0x3c9a21bf	0.01881492
180	0x3bed3b5c	0.007239742
181	0x3de2b258	0.110691726
182	0xbd010019	-0.031494234
183	0x3ddcb317	0.10776346
184	0xbe842e6b	-0.25816664
185	0xbd0ef7c9	-0.034904275
186	0xbd8400ef	-0.064454906
187	0x3d142087	0.036163833
188	0x3e192a08	0.1495744
189	0x3d7cfbab	0.061763447
190	0xbe4b96ec	-0.19881791
191	0xbd96be11	-0.07360471
192	0xbe5ae102	-0.21374896
193	0xbe3fca5f	-0.18729542
194	0x3d091942	0.033471353
195	0xbc8edeeb	-0.01744028
196	0xbd3b3c77	-0.04571196
197	0x3d13821c	0.036012754
198	0xbe715c41	-0.23570348
199	0xbcf7851e	-0.030214842
200	0x3dd60627	0.10450392
201	0xbdcdd779	-0.10050864
202	0x3c77f5e4	0.0151343085
203	0xbdaec578	-0.08533758
204	0xbeb5b73c	-0.3549136
205	0xbe111939	-0.14169778
206	0xbe593537	-0.21211706
207	0xbe4059cf	-0.1878426
208	0xbdacaed6	-0.08431785
209	0x3e03d33d	0.1287355
210	0xbde2deac	-0.110776275
211	0xbceb6b0f	-0.028737573
212	0x3e459509	0.19295134
213	0xbe1ea6b3	-0.15493278
214	0xbd106624	-0.03525366
215	0xbd792ec8	-0.06083563
216	0xbc081fd8	-0.008308373
217	0xbe5ca122	-0.21545842
218	0xbe07a4ea	-0.13246503
219	0xbde63f5b	-0.11242553
220	0xbdf6ae5f	-0.120449774
221	0x3c6760a4	0.014122162
222	0xbe1fd234	-0.1560753
223	0xbe2f878a	-0.17141548
224	0xbe3cabba	-0.18424883
225	0x3be4747a	0.006971893
226	0x3e2b57ef	0.16732763
227	0x3dab1487	0.08353525
228	0x3da25063	0.07925489
229	0xbdfd8ab7	-0.123799734
230	0x3d3cf1be	0.04612898
231	0xbc9ef97e	-0.019406077
232	0xbd13e48e	-0.03610664
233	0xbd2b36d3	-0.04180033
234	0x3d42276c	0.047400877
235	0xbe5d1217	-0.21588932
236	0xbe0604a4	-0.13087708
237	0x3d8bc973	0.06825533
238	0x3b29aa27	0.0025888772
239	0x3d92d3fd	0.0716934
240	0xbe2f4e33	-0.17119674
241	0xbcd91a1b	-0.026501706
242	0x3c0a5ba8	0.008444704
243	0xbe846d06	-0.25864428
244	0xbe48d3b6	-0.19612011
245	0xbda37187	-0.07980638
246	0xbd68e2c4	-0.056856886
247	0xbdc23b77	-0.09483998
248	0x3d63ccb4	0.055615142
249	0xbe10c9f2	-0.14139536
250	0xbdcdffbd	-0.10058544
251	0x3d1abe1f	0.03777897
252	0x3c4418fd	0.011968848
253	0xbce6b988	-0.02816464
254	0xbe3e6659	-0.1859373
255	0xbe7af6d0	-0.24508214

fc3.bias f4 [10]
0	0x3d00f430	0.031482875
1	0x3da3b1a1	0.079928644
2	0xbd9e0775	-0.07716266
3	0xbcfa626d	-0.030564511
4	0xbd778f11	-0.060439173
5	0xbd8918a8	-0.06694156
6	0xbdc27b8b	-0.0949622
7	0x3dc70154	0.0971705
8	0x3d8c40ea	0.06848319
9	0xbd8eafee	-0.0696715
