models/cnn_checkpoint.pth (torch, 451995 bytes, 10 tensors)

conv1.weight f4 [16, 1, 5, 5]
000000 84 ae 25 be 3a 07 78 be a8 37 13 be 72 dd 40 bd
       -0.16179854 -0.24221507 -0.143767 -0.047086187
000010 5d 4b 2d be b2 0f 9b bd c8 dc 45 be f0 df 66 be
       -0.1692328 -0.07571353 -0.19322503 -0.22546363
000020 d8 50 85 be 42 78 7d be e1 b5 de bd 53 85 c5 bc
       -0.2603824 -0.24752906 -0.108745344 -0.024111426
000030 d9 eb ca 3d 60 03 dc bd 85 0e 3f 3c e3 bb 19 be
       0.099082656 -0.10742831 0.011661177 -0.1501308
000040 a8 89 94 3d 11 5e 8f bd 42 59 2a 3e 17 cb 28 3c
       0.07252818 -0.070003636 0.16635612 0.010302327
000050 8d a2 57 bd 6d 23 58 be 2e 00 1b 3e 71 d7 30 3e
       -0.052645255 -0.21107264 0.15136787 0.17269684
000060 ac 61 b1 3e 49 56 a6 3d fa f4 d8 bd 8f 96 09 be
       0.3464483 0.08121926 -0.105936006 -0.1343634
000070 d5 f1 29 bd 63 30 b1 be 51 1a 5d bd 96 64 82 3e
       -0.041490395 -0.3460723 -0.053980175 0.25467366
000080 78 c2 90 3d 4a 22 32 3e 77 14 60 3e 7a 89 c7 bd
       0.07068342 0.17395893 0.21882807 -0.097430184
000090 40 df a6 bd 09 f1 3e bd f7 de 8f 3e 64 ec 83 3e
       -0.0814805 -0.046616588 0.28099796 0.2576629
0000a0 2a 3e db bd 5d 2c 4b be f7 cd 6e be cc c4 d6 bd
       -0.10705216 -0.19841142 -0.23320757 -0.10486755
0000b0 59 f0 1c be 68 d4 2a 3d e5 f3 27 be e1 d0 bb 3d
       -0.1532606 0.041706473 -0.16401632 0.091707
0000c0 e7 fa 29 be 29 d1 85 be 14 a8 25 bd b2 0e 22 be
       -0.16599618 -0.2613614 -0.040443495 -0.15825918
0000d0 c5 c6 ac bc ec 74 a9 3d 2f 3f a7 3d 28 19 18 bd
       -0.021090874 0.08274254 0.08166348 -0.037133366
0000e0 7b aa 71 be 0d 85 b5 be 78 b0 96 3c 15 d1 0c 3e
       -0.2360019 -0.35453072 0.018394694 0.13751633
0000f0 8f 06 99 3e 3c 88 e4 bd 80 61 bf be 79 6e a4 bc
       0.29887816 -0.11158797 -0.37379074 -0.020072209
000100 a6 6d 5b 3e f2 fa 5d 3e ef bd 41 3d 2f da b4 be
       0.21428546 0.2167776 0.047300275 -0.3532271
000110 3f fd f5 bd 4c 11 fc 3d aa 9c bd 3d d6 84 22 3c
       -0.120111935 0.123079866 0.09258397 0.009919366
000120 16 d1 f3 bd d7 df c4 3d 8c 1d fc bd 30 90 9d 3d
       -0.11905114 0.096130066 -0.12310323 0.07693517
000130 59 ad 3d 3e 2f 3e ad 3b e6 02 20 3e d5 a2 a2 bd
       0.18523158 0.005286954 0.15626106 -0.07941214
000140 ee ef 95 3b e4 86 0f 3d 71 92 40 bd 72 dc 94 3e
       0.004575721 0.03504075 -0.047014657 0.29074436
000150 9b db 33 3e 7f 07 17 bc 8e 66 30 3e 1a 49 05 3d
       0.17564242 -0.009218096 0.17226622 0.03254042
000160 38 99 50 3d 7e 22 60 3e 43 15 90 be 79 d8 93 3d
       0.05092737 0.21888158 -0.2814122 0.07219023
000170 78 bf 2d bb f4 74 bd bd 6e 45 d2 be d1 d3 6d be
       -0.002651183 -0.09250823 -0.41068596 -0.23225333
000180 39 a4 04 bf 87 1f ea be 03 77 f9 be 4b b8 86 be
       -0.51813084 -0.45727178 -0.4872361 -0.2631248
000190 16 e1 31 3c 97 ab a5 3c f8 4f 84 bd 50 06 d1 3d
       0.010856887 0.020223422 -0.06460565 0.10206282
0001a0 fe a1 a2 bd 1b b1 18 bc 6d 0a 86 3e 99 2f 59 bd
       -0.07941054 -0.009319569 0.2617983 -0.05302391
0001b0 5c 1e c6 be ab d4 4a be 33 1c 49 3e c0 03 8e 3e
       -0.38695037 -0.19807689 0.19639663 0.27737236
0001c0 7d 73 ec bd fa 61 a4 bb c1 17 2b be 63 ce 81 3e
       -0.11545465 -0.0050165625 -0.1670828 0.25352773
0001d0 65 d9 03 3e 3c 39 6d bd 97 8d a4 3c 1b 60 63 ba
       0.12875898 -0.05791591 0.020087047 -0.00086736836
0001e0 5f ac 31 3e b1 d8 d7 bb 72 c4 d7 bd 5b 77 d9 3d
       0.1735091 -0.006587111 -0.10535516 0.106184684
0001f0 b1 6a 33 be 07 48 47 be ff 62 a5 bd 30 07 47 be
       -0.17521168 -0.1946107 -0.08075523 -0.19436336
000200 ce 67 62 3d 5d 7a e6 3d c1 4c bf bc 7d 08 95 bd
       0.055274777 0.11253808 -0.023352029 -0.0727701
000210 0d 1b 10 be 60 c1 c4 bd 10 95 8c bd 43 a9 b5 bd
       -0.14072819 -0.09607196 -0.06864369 -0.08870175
000220 d4 f6 7f bd 01 47 1e be 48 d4 9e bd 49 17 08 be
       -0.062491253 -0.15456773 -0.07755333 -0.13290133
000230 2a 11 f4 3d 21 51 70 be fb d3 91 bd cc 94 e3 bd
       0.11917336 -0.23468448 -0.0712051 -0.11112365
000240 3b 7a 38 be ad 1c 20 3d ea bc 00 3e d2 c4 b8 bd
       -0.18015377 0.039089847 0.12572065 -0.090219155
000250 ca 3a 9a bd c0 71 9d be c7 16 d6 3a 8f 15 33 be
       -0.075307444 -0.30750847 0.0016333692 -0.17488693
000260 9b 82 54 be c2 39 ca 3d c4 07 21 3e d1 d3 f2 bd
       -0.20752947 0.09874298 0.15725619 -0.11856807
000270 73 f2 2f be f4 aa d5 bd 56 ee f4 3d 8c 50 59 3e
       -0.17182331 -0.10432997 0.119595215 0.21222132
000280 08 4e 4d be 1c 64 88 be 23 85 44 be b8 d4 78 3d
       -0.20049298 -0.26638877 -0.19191413 0.06074974
000290 6b db 78 3e b7 b3 33 be 91 54 53 be 4c 6c 1f bd
       0.24302451 -0.17549025 -0.20637728 -0.03892164
0002a0 1f 84 76 3e 27 28 86 3e f8 fc a4 bd ed 25 e8 3d
       0.24073838 0.2620251 -0.080560625 0.11335359
0002b0 eb e6 83 bd 06 ed 32 bd 3c f1 d8 3c 4f d7 90 3e
       -0.064405285 -0.043683074 0.026482217 0.28289267
0002c0 9f 09 51 3e ba dc 11 3e 95 20 28 3e fa f9 1c 3d
       0.20413826 0.14244357 0.16418679 0.038324334
0002d0 02 51 ef bb 46 7c e7 bc e6 95 d7 bc 72 c7 a7 3c
       -0.007303358 -0.0282575 -0.026316594 0.020480845
0002e0 eb 44 57 3e eb 5d 3f be 7c 9f 79 3c c0 a4 3f be
       0.21022384 -0.1868817 0.015235778 -0.18715191
0002f0 0f a8 19 be 19 cb 82 bd 79 fc ee bd 2c 4b 95 be
       -0.15005516 -0.06386394 -0.11669249 -0.29158914
000300 d6 c5 82 be 22 3c 94 bd 1c fc 18 bb 74 2c c2 bd
       -0.25541562 -0.07238032 -0.0023343628 -0.09481135
000310 35 55 1e bd 8e 9a 35 3e 21 ee 7e bd 9e ec 10 3d
       -0.03865548 0.17734739 -0.062238816 0.035381906
000320 8e 0e 6b be ec 70 f9 3d e5 9b 87 3e 89 7e 90 bd
       -0.22954771 0.12179741 0.26486126 -0.07055385
000330 2a d3 b4 be ee 19 17 3e 4d ca 6c 3e 58 db 8b 3e
       -0.35317355 0.14755985 0.23124047 0.27315784
000340 d5 df 2d be 91 77 8c be de 9e 01 bd a9 cf a0 3e
       -0.16979916 -0.27434972 -0.03164565 0.31408432
000350 8b e4 0d be c4 e1 9a be 9b 1a 1d be 6f 64 a9 bd
       -0.13856713 -0.3025037 -0.1534218 -0.08271109
000360 2f 02 7f 3e 90 8f 15 3d 17 e1 a0 bd 10 08 a2 3c
       0.24903177 0.036513865 -0.078554325 0.019779235
000370 9e f1 ec bd d1 7b a2 bc 0d 55 7c 3e 28 56 8e 3e
       -0.11569522 -0.01983443 0.2464182 0.27800107
000380 b4 41 ee 3d 3b c2 4d 3e 54 bb ca bc 67 bd 71 3d
       0.116336256 0.20093624 -0.024747528 0.05901852
000390 c1 92 77 3d 5a 40 d2 3d ca e4 97 bd e5 ae a4 bd
       0.06044269 0.1026618 -0.07416685 -0.08041171
0003a0 05 d0 13 bd 0e f7 df bd ca 11 11 3d 38 d7 89 bd
       -0.036087055 -0.10935794 0.035417356 -0.06730503
0003b0 9f 44 e6 bd ed a0 c3 be 23 05 5b be b2 6f 08 be
       -0.11243557 -0.38208714 -0.21388678 -0.13323858
0003c0 cd 72 38 3e 1a 75 4d 3c 70 68 44 be b9 0f 81 bd
       0.18012543 0.012540126 -0.19180465 -0.06301827
0003d0 fe 68 d3 3c 0c 51 13 3d f3 d0 68 3e 2c a4 5d 3e
       0.0258069 0.035965964 0.22735958 0.21644658
0003e0 61 2c 0d 3e 4f 45 fd 3d c2 fd f8 3d b9 b2 06 be
       0.1378646 0.12366735 0.121577755 -0.13154115
0003f0 7a 86 5f 3d 0c b2 80 bd 3b 08 31 be 42 a7 76 bd
       0.054571606 -0.0628396 -0.17288296 -0.060218103

conv1.bias f4 [16]
000000 ae 2f 5d be 41 08 32 be 52 c5 1b be 56 91 33 be
       -0.2160022 -0.17385961 -0.1521199 -0.1753591
000010 1c 5d 43 bd 91 20 5c be 00 c4 8f be 69 40 23 be
       -0.047696218 -0.21496798 -0.28079224 -0.1594254
000020 12 86 34 be fb 95 aa bd d0 d0 a0 be cc 04 af be
       -0.17629269 -0.08329388 -0.3140931 -0.34183347
000030 fb 52 91 be 3f a5 4f be e5 5f d1 3c cc 42 09 be
       -0.28383622 -0.2027788 0.025558421 -0.13404387

conv2.weight f4 [32, 16, 3, 3]
000000 4c 21 a8 bd 0d 8c 0c be 12 7d eb bd 42 84 1a be
       -0.08209476 -0.137253 -0.11498465 -0.15089515
000010 69 81 87 be a2 3e 80 be 93 31 6e 3d de f1 4c 3e
       -0.2646592 -0.25047785 0.058152746 0.2001414
000020 48 9b 58 3d 68 ce 6f be 41 9f 95 be 2a c3 a9 be
       0.052882463 -0.23418581 -0.29223064 -0.3315671
000030 8a b2 b4 3d e6 ba 9a 3d bc 6e dd 3d 33 7c 56 bd
       0.08823116 0.07555179 0.108121365 -0.05236454
000040 08 ca 2f be b0 96 e6 3c 59 8a e2 bc c3 f5 f2 bd
       -0.17166913 0.028148025 -0.02765386 -0.118632816
000050 28 93 0f bd 44 79 96 bd 80 60 ca bc de b7 83 bc
       -0.03505245 -0.07347348 -0.024704218 -0.016078886
000060 b5 0f 1a 3d 03 d3 52 3c 9d 16 0f be 67 74 82 bd
       0.037612636 0.012867692 -0.1397347 -0.06369858
000070 4e ba b0 bc 27 2f 65 bd 1a 47 1c 3e a3 3c d1 3d
       -0.021573212 -0.05595317 0.15261498 0.10216644
000080 c1 cd de 3d 46 7f 24 3d 05 5d b5 bd a2 d2 d3 ba
       0.10879088 0.04016044 -0.08855633 -0.0016160796
000090 79 e4 e9 3d 76 a3 f7 3c 2c 75 de 3c a3 ba 33 bc
       0.11420531 0.030229311 0.027155481 -0.010969791
0000a0 18 c4 02 be e3 e6 72 3b 4b bf 90 bc cf c1 05 be
       -0.12770116 0.0037063889 -0.01766934 -0.13062213
0000b0 a8 c6 37 be 97 e7 09 bd 14 cb 7a bd 0a 23 20 bd
       -0.17946875 -0.033668127 -0.061228827 -0.039095916
0000c0 6b 54 19 bc db 01 aa 3d 8b c6 80 be 72 17 4e bd
       -0.009358506 0.08301135 -0.25151476 -0.050315328
0000d0 26 36 74 bc bc c4 bb 3d 43 e9 80 3d 10 ab 90 bd
       -0.014905488 0.091683835 0.06294491 -0.070638776
0000e0 b7 94 4b 3d 3f 90 a7 bb 36 03 ea bd b4 b2 c1 bd
       0.049702372 -0.005113631 -0.11426394 -0.09457913
0000f0 37 6e 81 bd 08 50 96 bd 6f 08 ce bb 3b f8 ba bd
       -0.0631985 -0.073394835 -0.0062876265 -0.091293775
000100 b8 8e 70 be 9b 17 80 be f4 1b a0 3c 04 15 55 3d
       -0.23491943 -0.2501801 0.01954458 0.052021995
000110 ab 4c 33 bd 22 f4 90 3d 63 ea a5 3d ba 08 30 3e
       -0.04377429 0.07077815 0.08101346 0.17190829
000120 97 cb 64 3d a3 43 7c 3e 1c 24 75 3d 69 e9 38 be
       0.05585822 0.24635176 0.05984889 -0.18057789
000130 4a 37 de bd ab 4e 27 bd e6 bd a7 3c 99 0d d0 bd
       -0.10850389 -0.040846508 0.020476293 -0.101588435
000140 ad 35 8f be 27 92 70 bc 85 db fc 3d 87 1b 39 3e
       -0.2797064 -0.014683283 0.123465575 0.18076907
000150 4c c7 45 be ce 54 53 bc f7 91 4c be 5b 4b ef bb
       -0.19314307 -0.012898637 -0.19977556 -0.0073026842
000160 e8 74 33 3e 80 3b 59 3c 3f df f9 bc 41 b6 75 bd
       0.17525065 0.013258815 -0.03050196 -0.059988264
000170 ad 49 e3 bd a9 db 31 3e c5 16 0d 3d 46 70 42 3e
       -0.11098037 0.1736895 0.034445543 0.18988141
000180 50 81 53 3c 54 ba 1a be 6a 0d 4d 3c ef fa 21 ba
       0.0129092485 -0.15110141 0.012515405 -0.00061790546
000190 65 e8 65 3d 86 ab fa bd 5b a3 20 3d 9a 89 7c 3d
       0.05612983 -0.12239747 0.039218288 0.061654665
0001a0 75 2c 86 3c fc 93 a5 3d 71 e9 6d 3d 43 6a 8a 3d
       0.01637862 0.080848664 0.058083955 0.06758549
0001b0 a0 b0 4d be 69 66 2d be 9c 98 49 bd 85 0e 10 bc
       -0.20086908 -0.16933598 -0.049217805 -0.008792524
0001c0 d3 9a ce 3d 53 65 37 3d 88 f5 aa 3d 2c 0b 02 3e
       0.10088124 0.044774365 0.083476126 0.12699574
0001d0 12 ce 17 3e 40 51 13 bc 68 ee 70 bd 9c 29 b0 3d
       0.14824703 -0.0089915395 -0.058821112 0.08601686
0001e0 7a 7a 36 be ff f5 e0 bc d3 1e c2 3d 8a d4 3f be
       -0.17820159 -0.02746105 0.094785355 -0.18733421
0001f0 af e3 4a be c1 00 36 be a7 e7 37 be 3f 67 93 be
       -0.19813417 -0.17773725 -0.17959462 -0.28789708
000200 1f ec 2f be a6 94 88 3c af 25 69 3d 06 63 39 bd
       -0.17179917 0.016672444 0.056920704 -0.04526045
000210 60 90 01 3d be db 05 3e 7d 35 b2 bc 53 b7 1a be
       0.031631827 0.13072106 -0.02175402 -0.15108995
000220 06 8e 20 3d 26 ba 95 bd f8 4c 26 3e 9e e4 33 bc
       0.039197944 -0.073108956 0.16240299 -0.0109798
000230 73 3f 9b 3d 9d f2 e0 3b 58 cc c7 3c d5 04 d5 3d
       0.07580461 0.0068648593 0.02438943 0.10401312
000240 76 f9 71 bd 38 a8 65 3d 08 08 32 be 04 06 37 bd
       -0.059075795 0.05606863 -0.17385876 -0.04468347
000250 95 48 27 be 08 23 06 be 65 98 f6 3d d4 6d 8e 3e
       -0.16336282 -0.13099301 0.12040786 0.27818167
000260 22 72 31 3e 6c e2 67 be 36 86 1d bd 0b b4 ac 3d
       0.17328694 -0.22644967 -0.03845807 0.08432778
000270 a6 38 5f bd 97 76 44 3d 0d 8c 81 bd 05 12 92 bd
       -0.054497384 0.04796466 -0.06325541 -0.07132343
000280 2c f2 53 be 0c 78 cd bd a0 62 4c 3d 6b 7f 7a bc
       -0.2069785 -0.10032663 0.049898744 -0.015289168
000290 a4 d3 fd 3d 79 69 1a bc 35 4b 05 be cc 62 34 be
       0.12393883 -0.009424561 -0.1301697 -0.17615813
0002a0 88 5a f6 bd 8c df be bc 5e c2 ad bd 06 e4 1c be
       -0.12028986 -0.023299955 -0.08484338 -0.15321359
0002b0 a1 b8 83 bd 12 ed 0b 3e ce fd 4a 3d a0 69 79 bd
       -0.064316995 0.13664654 0.049558453 -0.060891747
0002c0 d8 a8 6f bd 4a ee b3 bb 5d 7b 4d be fa c3 d2 be
       -0.05851063 -0.0054910528 -0.2006659 -0.41165143
0002d0 ce 0c f5 3d 99 dc 0c be 57 7d 5f bc 8d 88 85 bd
       0.11965333 -0.13756026 -0.013640723 -0.065201856
0002e0 95 10 ab bd 74 92 13 be ad 00 26 be 8e cc 03 be
       -0.08352772 -0.14411336 -0.16211195 -0.12871
0002f0 84 52 80 be d8 e7 7a bd 95 85 0c 3d d9 90 4b bd
       -0.25062954 -0.06125626 0.03430708 -0.049698684
000300 d7 21 d5 bd 9b fd 96 bd 8d 8f e7 bd 18 e3 d8 3d
       -0.10406845 -0.0737259 -0.11306677 0.1059019
000310 71 09 58 3b 52 b8 17 be 67 76 0d be 51 e0 9b bd
       0.0032964612 -0.14816406 -0.13814698 -0.07611144
000320 7a 64 c3 3d e8 22 8f bd 62 7a 19 3c d6 86 31 be
       0.09540649 -0.0698908 0.009367557 -0.17336592
000330 a2 5c 89 be e4 39 00 bc 80 28 7f bb 7e 53 67 be
       -0.26828486 -0.007826302 -0.0038934052 -0.22590443
000340 a6 ec bd bd 8b 74 f4 3d 09 8f 8e 3d 6e 94 de bd
       -0.09273653 0.11936291 0.069608755 -0.108681545
000350 9e e2 4c bd 03 de e9 3d 2e 6f f5 bd 72 3d 39 be
       -0.050020806 0.114192985 -0.119840965 -0.18089846
000360 74 e7 d6 3d 5b 9c b2 bd 05 d4 6f bd bc c7 b5 3c
       0.10493365 -0.08721229 -0.058551807 0.022189967
000370 86 2d 83 bd 86 b1 8a be cb bf d2 3c ca dd b4 3d
       -0.06405167 -0.27088565 0.02572622 0.088313654
000380 e3 ce ce 3d 68 19 97 3c 32 5a e9 3b 58 2e 4a bd
       0.10098054 0.018444732 0.007121348 -0.049360603
000390 02 c8 06 bd ff 9d d0 bd 44 e5 19 be cc 90 d3 3d
       -0.032905586 -0.10186385 -0.15028864 0.10330352
0003a0 2b 35 6f 3e ba 33 7b 3e 88 0c b2 bd e8 3d d7 bd
       0.23360126 0.24531451 -0.086937964 -0.105098546
0003b0 8e 57 07 bd 22 39 b0 3d e4 aa 21 be 66 dc 0b be
       -0.033042483 0.08604647 -0.15787846 -0.13658294
0003c0 ff 7a 42 be 69 a1 c8 3d b1 09 b9 3c 74 9b 0a be
       -0.18992232 0.097964115 0.022587629 -0.13535863
0003d0 2d 7d 98 bd 5f 3a 54 3d 76 4f 1f be 2a de 52 be
       -0.074457504 0.05181348 -0.15557656 -0.20592561
0003e0 e9 44 76 3d 11 d6 70 3d f7 53 09 bd f8 6d 6c be
       0.06012431 0.0587979 -0.03352734 -0.23088825
0003f0 4d 47 10 be 87 97 34 bd 12 91 bf 3d d9 a1 56 bd
       -0.14089699 -0.04408982 0.09353842 -0.052400444

conv2.bias f4 [32]
000000 f6 b2 c0 3c 43 c6 da bd 41 d9 ee bd ad d6 c0 bb
       0.023522835 -0.10682347 -0.11662532 -0.0058849663
000010 0d 35 7a ba 8d 75 ef bd 9e cf 07 be 0f c3 54 3b
       -0.00095446483 -0.11692343 -0.13262793 0.0032464897
000020 40 dd 9c bd e5 4b a3 3d 42 04 c2 bd 69 02 09 3b
       -0.076593876 0.0797346 -0.09473468 0.0020905978
000030 90 8d 80 bd 37 0a 55 3d 8f c1 0e 3d 9f 19 d9 bd
       -0.06277001 0.052011695 0.03485256 -0.1060059
000040 2e 5e 2c 3d 45 75 21 bc 9d 85 4f 3d 5f 72 71 bd
       0.042082004 -0.009854619 0.050664533 -0.058946963
000050 26 cb 9f 3d 8a 4c f6 bd 3e 74 ea bd 83 3f 3d bd
       0.07802419 -0.120263174 -0.11447953 -0.046203148
000060 a5 fb b4 bc cf ea 17 bd 48 41 bf 3c a4 77 19 bc
       -0.02209265 -0.037089165 0.023346558 -0.009366903
000070 eb b7 f0 bc 23 ff 32 3d 99 d1 2f bb 63 f9 07 be
       -0.029384574 0.04370035 -0.002682781 -0.13278727

fc1.weight f4 [120, 800]
000000 6f 64 a7 bd ac 3f 2c be 05 bf 68 bd 29 4a 6b 3c
       -0.08173453 -0.16821164 -0.056822795 0.014360943
000010 ed 59 c8 3d 5e a9 28 be 77 36 1b be b2 fd 13 bc
       0.09782777 -0.16470858 -0.15157495 -0.009032654
000020 99 a4 51 3d c9 9d 81 3e 16 c4 a0 bc 5d 8c 94 3c
       0.051182363 0.25315693 -0.019624751 0.018133337
000030 54 22 b7 3c f6 63 e9 3c 01 d3 86 3e 27 ff da 3d
       0.022355236 0.028490048 0.26332858 0.10693198
000040 35 1d b2 bd 20 7b bb bb 39 9d fa 3d 5d c8 8e 3b
       -0.08696977 -0.0057214648 0.12237019 0.0043573813
000050 ca 1d ea 3b c3 52 22 3c 7e 44 90 b9 2f c1 c5 bd
       0.0071446644 0.009907427 -0.0002751685 -0.096559875
000060 de 4d 83 bd fc f8 34 3c 39 b4 15 be f2 02 32 3d
       -0.06411336 0.011045691 -0.1461953 0.04345984
000070 32 0a 53 3e 41 3d 88 3e 5b ce 00 3e 4c 01 7a be
       0.20609358 0.26609233 0.12578718 -0.24414557
000080 76 c3 4a bd ee 86 b6 3d 0d ff 87 3e d3 ec 2f 3d
       -0.049502812 0.089124545 0.26561776 0.042950463
000090 56 7f dd bd 48 81 f3 38 0e 09 8c 3d 00 f0 2e bc
       -0.10815303 0.000116112235 0.068376645 -0.010677338
0000a0 d2 7e e4 3d 0a b3 1c bc f8 49 83 bd cd 9f b0 3d
       0.111570016 -0.009564171 -0.06410593 0.086242296
0000b0 5d 1d b9 bc 28 9b dc 3b 90 7b 20 be 6f 19 51 3d
       -0.02259701 0.0067323633 -0.15672135 0.051049646
0000c0 da 50 81 bd 53 d1 a0 3d 5b 90 b3 3d b8 42 a9 3d
       -0.06314249 0.078524254 0.08767768 0.08264679
0000d0 09 f2 cf 3c 34 2d 0e bd 93 5f 92 bb 26 8c cb 3e
       0.025383966 -0.034711078 -0.0044669597 0.39755362
0000e0 25 8e d5 3d f4 a1 f9 3c 1f 31 b9 bd a2 a6 9c bd
       0.104275025 0.030472733 -0.09042572 -0.0764897
0000f0 2e 9b 1e be f8 a8 ea 3d eb 1c 78 bc 13 3b 51 bd
       -0.15488884 0.114580095 -0.015143613 -0.05108173
000100 2a 13 25 be d0 ce 04 be ec 0b 44 be a8 5f b6 3d
       -0.16120592 -0.12969518 -0.19145173 0.08904964
000110 27 ea a5 bb e4 03 4f 3d 45 85 ef bd b8 4d 13 3e
       -0.0050633135 0.05054082 -0.11695341 0.14385116
000120 79 5a 37 be f9 aa 8b bd 87 f1 b4 3d ba 8b 13 bb
       -0.17905606 -0.0681972 0.0883513 -0.0022513703
000130 55 b8 eb 3d 47 bb d6 bc 85 28 e9 3c ed 78 8a 3d
       0.11509768 -0.026212348 0.028461704 0.06761346
000140 80 9d 8a 3c 95 a1 3c 3e 01 7f 17 bd bf fc 84 bc
       0.016920805 0.18421014 -0.036986355 -0.0162338
000150 c8 8e 38 be 15 2d 9d 3c 8d 0c 41 3e 59 2d 70 3c
       -0.18023217 0.019186536 0.18852444 0.014659249
000160 50 e5 27 3e 83 92 e4 bd 15 68 ed 3d 85 f2 14 3e
       0.1639607 -0.111607574 0.11592118 0.14545639
000170 52 ce 0f 3e e4 d0 cb 3a ab e4 fb 3c 03 f3 d4 3d
       0.14043549 0.0015549925 0.030748686 0.10397913
000180 ef e7 29 3b 7c 97 f1 bd f0 d0 47 bc 81 9a 3f b9
       0.0025925597 -0.117964715 -0.012195811 -0.00018272737
000190 67 ea 7a bd 0a 8d 85 bd 42 d2 3c 3e 3f 20 37 3e
       -0.0612587 -0.06521042 0.18439582 0.17883395
0001a0 03 0f f1 3d 46 7f 0a be 15 a7 0d be 61 05 82 3e
       0.117704414 -0.13525113 -0.13833268 0.2539473
0001b0 74 b4 13 3e 0a e9 1c 3e e9 d1 29 be 88 3e 6d 3c
       0.14424306 0.15323272 -0.1658398 0.014480241
0001c0 51 33 c2 3d 49 97 4e 3d f8 56 9d 3d 49 8f 19 3e
       0.09482444 0.050437246 0.076826036 0.14996065
0001d0 39 64 f0 bc b1 ad d8 bc ef cb 12 be a0 3a 08 be
       -0.029344665 -0.02645001 -0.14335607 -0.13303614
0001e0 2c 2c e8 3c 9b 9e 5e bc cf 8a 67 3c 07 55 16 bd
       0.028341375 -0.013587619 0.014132216 -0.036702182
0001f0 bb 97 b4 bd 3c 81 23 be ff d5 b3 bc b0 f6 4a 3c
       -0.08818003 -0.15967268 -0.021952627 0.012387916
000200 0a 4d b1 3d 5a 46 06 3e a8 90 0b be 7a 86 4a be
       0.08657272 0.13112774 -0.136294 -0.19777861
000210 8a 78 2f 3d 32 1d e4 3d 3e e2 77 3e 3d af 4f bc
       0.042839564 0.11138381 0.24207398 -0.012676057
000220 6b 03 1b bd 89 23 47 bd 87 a9 f3 3d fe b5 41 3e
       -0.037845057 -0.048617873 0.11897569 0.18917081
000230 a7 6b 6c 3e 43 5e c8 3d 3e 3d a1 bd e3 8e 0f 3d
       0.23087941 0.09783604 -0.07873009 0.035048377
000240 35 75 96 3c b5 6b 5c 3e 7f e3 be 3d 59 4c 71 3c
       0.018366436 0.21525462 0.09320735 0.014727675
000250 ee 2b 30 bd f0 5f 00 3d f3 bf ac 3d 05 91 5d 3d
       -0.043010645 0.031341493 0.08435049 0.05409338
000260 33 f6 69 3d 15 8b 4b 3e a9 67 6b 3e e3 39 16 be
       0.05711956 0.19877274 0.22988762 -0.1467052
000270 7d bb 6e 3c 7f 60 67 3b 9a cf 0f bd 76 2d e6 3d
       0.014571068 0.003530532 -0.035110094 0.1123914
000280 03 ac 5f 3d d1 2d 49 be 34 c7 e9 bd ac 08 61 bd
       0.054607403 -0.19646384 -0.11414948 -0.05493991
000290 b0 df 19 bd 83 78 c1 3d f4 34 1e 3d 68 e5 c2 3d
       -0.03756684 0.09446814 0.03862472 0.09516412
0002a0 ab de c7 bd ba d4 0e be 1f 52 77 3d b5 ea 46 bd
       -0.097592674 -0.13948336 0.06038105 -0.048563678
0002b0 34 cc 89 bd f4 bd 56 3d 33 ec 9e bd b6 b4 82 3d
       -0.06728402 0.052427247 -0.07759895 0.06382124
0002c0 1e 36 3c 3e b0 e3 cc 3e bd db ac 3e ec 71 e1 3d
       0.18380019 0.40017462 0.33761397 0.11008057
0002d0 e6 21 c2 bd 11 45 46 3e 83 8a 27 3c 97 e8 15 3e
       -0.09479122 0.19362284 0.010225895 0.14639507
0002e0 48 6b 84 be 4a a5 88 3d c5 fd 38 3e c1 3f 0c bc
       -0.258631 0.066721514 0.18065555 -0.008560122
0002f0 bd 28 f7 3c e6 35 80 be 76 8a 1c be ba 41 d7 bc
       0.030170793 -0.2504112 -0.15287194 -0.026276458
000300 47 6e 94 bc 2a 56 c7 bd ec ad 13 be 6c 44 83 3d
       -0.01811899 -0.09733231 -0.14421815 0.06409535
000310 71 6a 93 3d dd 23 21 bd 4c 39 ad bd f2 17 47 bc
       0.071980365 -0.039340843 -0.08458194 -0.012151705
000320 ec 85 5a bd 46 88 36 be 4e 88 9a 3d e1 f1 a0 3e
       -0.053350374 -0.17825422 0.07545529 0.3143454
000330 42 7c 87 3e f6 01 89 3d bc 21 e4 bd 82 6f 8b bd
       0.2646199 0.06689827 -0.11139247 -0.06808378
000340 0c ec 0d 3e c6 bc 38 3e d2 7f 9f 3c d7 e7 02 3e
       0.13859576 0.18040761 0.01947013 0.12783752
000350 6e df 17 3d 33 b9 82 bd 46 47 92 bd 90 c6 06 3e
       0.037078314 -0.0638298 -0.071425006 0.13161683
000360 4d 56 71 3e ba a7 4b bd 08 ae 6c bd 9b 5f 89 be
       0.23568077 -0.049720503 -0.057783157 -0.26830754
000370 50 ae dd 3d 52 7d 1c bd ed fc 09 bd 8a 79 2f bd
       0.10824263 -0.038205452 -0.033688474 -0.042840518
000380 2c 32 29 be 92 09 25 3b e3 7f 45 be 9b 4a 4a 3d
       -0.16523045 0.0025182706 -0.19287066 0.049387556
000390 07 a9 16 be bc 23 1c 3d 1c 8a 33 3c 32 83 37 be
       -0.14712916 0.038120016 0.010958221 -0.17921141
0003a0 0c 68 39 bd 57 2f 3c 3e d7 8a 40 3d bf c8 b7 3d
       -0.045265242 0.18377434 0.047007408 0.08973836
0003b0 49 ab 3b 3c 1b fc b8 bd c3 34 6a bd 6a 39 62 3e
       0.011454412 -0.0903246 -0.057179224 0.22092214
0003c0 bc ff c4 bc 1f 53 89 bc 1f 35 8c 3d 03 2a 58 bc
       -0.024047725 -0.016763268 0.068460695 -0.01319361
0003d0 7e 09 bd bc 9a 78 a5 bd 89 47 11 bd fe 3e 5d be
       -0.023075815 -0.080796435 -0.035468612 -0.21606061
0003e0 58 2e c4 bd f2 99 97 bd cc 8e 1a 3c 2b 3b ae 34
       -0.09579152 -0.074024096 0.0094334595 3.2453076e-07
0003f0 90 bb 9e 3c 2f 8e d4 bc e6 08 cf 3c 56 8a d0 3c
       0.019376546 -0.025946705 0.025272798 0.025456589

fc1.bias f4 [120]
000000 24 fc d4 bd b1 7c d0 3d da d6 50 bd 76 20 02 be
       -0.103996545 0.10180033 -0.05098615 -0.12707695
000010 01 70 86 3c 3a 32 27 bd 89 9c 4b bd ce 99 51 bd
       0.01641083 -0.040819384 -0.04970983 -0.05117207
000020 49 46 54 bd e0 3f 23 bd c1 1b af bc 04 08 4e bd
       -0.05182484 -0.039855838 -0.021375539 -0.050300613
000030 24 5a af bc a8 27 8e bd 01 41 4f bc c6 be 63 bc
       -0.021405287 -0.069411576 -0.0126497755 -0.013900464
000040 b0 36 9d 3b 68 a8 60 bc 99 0f 8a bd f1 8e 86 bc
       0.004797779 -0.013712026 -0.06741256 -0.016425582
000050 57 03 bb bd 1d 47 d6 3c 78 f6 0d bd fe 89 7a 3c
       -0.091314964 0.026156956 -0.03465888 0.015291689
000060 a1 9d 30 be 7e 6f b5 bc 0a 32 02 3b 60 f7 20 bd
       -0.1724763 -0.02214789 0.0019866251 -0.039298415
000070 84 57 33 bb 3d fc 24 3d f5 b8 0a 3d 48 95 8a bd
       -0.0027365396 0.040279616 0.033867795 -0.067667544
000080 21 f9 04 bc 7a 10 1d bc ef 83 41 bc 6a 1a cc 3b
       -0.008116038 -0.009586448 -0.011811241 0.0062287347
000090 1d b8 03 bc 3d b7 30 bd 7e ab dd bc f7 2f 38 bd
       -0.0080395015 -0.0431435 -0.027059313 -0.044967618
0000a0 7e fd a2 3d 2a c3 12 be a2 40 90 bd 19 36 ed bc
       0.07958506 -0.14332262 -0.07043578 -0.02895646
0000b0 ad f7 98 3d ce ac 14 bc 89 01 f8 3c 7e 8e ae bc
       0.074691154 -0.009074403 0.03027417 -0.02130818
0000c0 05 0f 51 bd 0f c8 05 bd 67 de e9 3b 5e b9 24 3d
       -0.051039714 -0.032661494 0.007137108 0.040215842
0000d0 8c 77 f1 bc 77 d8 fa bc 23 a4 86 3c 41 26 39 bc
       -0.02947595 -0.030620797 0.016435688 -0.011300624
0000e0 48 a5 90 bc 7b ff af 3c d4 30 65 bd c0 8f 33 bd
       -0.017656937 0.021484127 -0.05595477 -0.043838263
0000f0 55 9f a7 bd 1b 5a cf bd 57 0d 2f bb fb ce e5 3c
       -0.08184687 -0.10124608 -0.0026710832 0.028052798
000100 b9 cc ac 3d 27 fe 5b bc 3c 5f 87 3b bf 76 7b bc
       0.08437485 -0.013427294 0.004131226 -0.0153481355
000110 57 86 06 3d 21 77 4a bd 1c 2f a5 3c e9 ed 36 be
       0.03284296 -0.049430016 0.020164065 -0.17864193
000120 c2 f5 02 ba 2f 93 85 bd a5 7b fb bd 2e e7 b9 bb
       -0.0004995727 -0.06522214 -0.12279443 -0.0056733107
000130 21 d6 a2 bc 44 22 3d bd 0f 91 2e 3d 87 4e e5 3c
       -0.019877495 -0.046175256 0.042618807 0.027991546
000140 df 40 38 3c f8 7c 5e bd 8d aa 28 be bd ff 69 3d
       0.011245935 -0.0543184 -0.1647131 0.057128657
000150 0c fb 5a bc c1 ed 10 bd 1a 18 89 bd ac 55 54 bd
       -0.013365518 -0.03538299 -0.0669405 -0.051839516
000160 2f 5b f3 bc 00 ad 00 3c 7a 6e 75 bd d9 5c 1a bd
       -0.029706566 0.007853746 -0.05991981 -0.037686203
000170 36 03 9f bb 01 9f 9c bd 25 41 5f bd 62 d6 ef bc
       -0.0048526777 -0.07647515 -0.054505486 -0.02927703
000180 6f bb db bc 4b 1e b9 3d 87 9a 14 be b0 65 12 be
       -0.026822774 0.09038981 -0.14512073 -0.14296603
000190 ee 19 85 3d dc 7f 0d bd 44 58 63 bc be 16 89 bc
       0.06499086 -0.034545764 -0.013876025 -0.016734477
0001a0 6a e7 01 bd da dd 31 bc 36 df f3 bd 9e f5 30 bd
       -0.031714834 -0.010856116 -0.119078085 -0.04320299
0001b0 7d c2 09 bc 83 85 e8 bc f1 37 2d bd af 84 db 3c
       -0.008408186 -0.028383976 -0.042289678 0.026796667
0001c0 6a f3 da bb 61 e3 c1 bc c1 01 52 bd a8 be 8b bc
       -0.0066818492 -0.023667993 -0.051271204 -0.017058685
0001d0 ed 98 00 bb fe 34 1c bc 19 b4 2e bd 14 71 f5 3b
       -0.00196224 -0.009534119 -0.042652223 0.0074902866

fc2.weight f4 [84, 120]
000000 3f e9 82 bd 15 b8 73 3d 5f 27 39 be 6a 1c df 3d
       -0.063921444 0.059501726 -0.18081425 0.108940914
000010 0e 6a 2c 3e 31 83 f8 3c a5 ea 47 3d f1 dd 4b bd
       0.16837332 0.030335994 0.04880776 -0.049772207
000020 60 41 b7 bd 73 e0 01 3d a1 2f 8b be e5 ff 6e 3c
       -0.08948016 0.031708192 -0.27184775 0.014587377
000030 57 ea d7 3c c6 28 18 be 2b d5 37 be cf 35 65 3c
       0.02635686 -0.14859304 -0.17952411 0.01398988
000040 e1 5b 2c 3d f2 46 c8 bc a1 ad 5d 3d f7 3a 60 3d
       0.04207981 -0.024447892 0.054120664 0.054743733
000050 d4 0e 1d 3e 9c d6 9c 3d bd 2c 77 ba 8a 81 b9 bd
       0.15337688 0.07658121 -0.0009428969 -0.09057911
000060 bc 2b 30 3b 4c 7b a2 3d 7c 5d 40 bd 25 07 b2 bc
       0.0026881536 0.07933673 -0.046964154 -0.021731922
000070 f9 70 05 3d d0 07 26 bd 69 64 d6 3d 23 10 6c bd
       0.032578442 -0.040534794 0.104683705 -0.057632577
000080 ac 85 3a bd b2 de 27 3e a3 cd 3e bb c9 7d c5 3d
       -0.045537636 0.16393545 -0.0029114268 0.09643132
000090 47 b4 56 bd 4e 07 90 bc d6 43 7e 3d c6 fa 10 be
       -0.05241802 -0.017581608 0.062076412 -0.14158162
0000a0 56 75 40 3e 7d 26 91 3d f6 90 a5 3d 17 a9 1f be
       0.1879476 0.07087419 0.0808429 -0.15591846
0000b0 90 e9 f1 3d 89 d5 7e bd b4 da 3b bc da d7 96 3c
       0.11812127 -0.06221536 -0.011465717 0.018413473
0000c0 28 60 01 bd 19 1d 00 be 44 73 1f 3c d7 49 44 be
       -0.031585842 -0.125111 0.009732071 -0.19168793
0000d0 15 cd 2a be 16 cd c2 bc 8f e0 6d 3c ee c2 26 3d
       -0.16679795 -0.023779433 0.014518871 0.040713243
0000e0 10 eb 4c 3e bf 98 35 bd 06 45 25 3c 3d b2 b6 bd
       0.20011544 -0.044335123 0.010087257 -0.08920715
0000f0 77 c6 f4 bd 72 8d 07 3e 9c 00 0a be 1a 83 22 bd
       -0.11951917 0.13237551 -0.13476795 -0.03967581
000100 91 14 00 be a8 61 23 bc 02 77 c7 3d ee 68 37 3d
       -0.12507845 -0.0099720135 0.09739496 0.044777803
000110 47 25 4a be 71 8d be bd 5c 98 c6 bc 98 80 94 3d
       -0.19740783 -0.093043216 -0.024242572 0.0725109
000120 9f cb 5e 3d 31 35 88 3d 9a 1d b0 3d d8 d9 81 bc
       0.054393407 0.066507705 0.08599396 -0.015850946
000130 3f cf 8e 3d 6b 82 c6 3d e7 24 a8 bd cf 0a 8d bd
       0.06973123 0.09692844 -0.082101636 -0.06886827
000140 84 41 ba 3d 49 04 ec 3d 07 88 0c 3e c9 30 cd 3d
       0.09094527 0.11524255 0.13723765 0.10019071
000150 68 9f 3f be 03 4b 57 bd d4 31 0e 3e 1a 2c 10 3d
       -0.18713152 -0.05256177 0.13886195 0.03519831
000160 16 7d 76 3c ce c9 33 3c 82 03 02 3e a1 ff 81 3d
       0.015044471 0.010973407 0.1269665 0.063475855
000170 86 17 da bd 28 3f e9 bd 7a 0d fa bd 19 85 16 3e
       -0.10649018 -0.11388999 -0.12209602 0.1469921
000180 18 34 f6 bb eb 2e cd 3d aa 15 72 3d 29 7d 38 3e
       -0.0075135343 0.100187145 0.05910269 0.18016495
000190 fe 90 93 bc f3 24 83 3c 9b 3b 8f bd 60 b8 08 3d
       -0.018013474 0.01600883 -0.06993791 0.03337896
0001a0 20 ba bb 3c c9 a1 54 3d 2e f3 52 3c 0c f9 38 3d
       0.0229159 0.051912103 0.012875361 0.045159385
0001b0 a6 d1 3d 3d 62 01 05 bd 9e c9 19 3e 62 c5 64 bc
       0.046342514 -0.032472022 0.15018317 -0.013963075
0001c0 9a 1d 7a bb 81 d3 14 3e d9 72 03 be e1 1c 24 3e
       -0.0038164617 0.14533807 -0.1283678 0.16026641
0001d0 56 6e c1 bd d4 4e a8 bd cf 60 5a 3d e4 62 1b 3d
       -0.09444873 -0.0821816 0.05331498 0.037936106
0001e0 be 01 89 3d 32 61 e2 bd 7c 8e aa 3d 70 bb 29 3b
       0.066897854 -0.11053695 0.08327958 0.0025899075
0001f0 c9 a7 5f bd c7 63 c4 bc 01 a0 35 bd 2b 4e d3 bc
       -0.05460337 -0.023973359 -0.044342045 -0.02579411
000200 e9 76 b2 3c af 1d 64 bd f1 b7 b8 3c 60 68 47 3e
       0.021785216 -0.05569237 0.022548648 0.1947341
000210 dd d5 bc bd e9 c3 71 3d f9 3f 8a be c4 51 16 bd
       -0.09220479 0.059024725 -0.27001932 -0.03669907
000220 00 34 99 3d a5 c4 9c 3d dc 31 1f 3d e1 c4 57 3d
       0.07480621 0.076546945 0.03886591 0.052677993
000230 aa 3d a6 3d 29 94 8f bc 98 ce 4a 3d 59 3e 1f bd
       0.0811723 -0.017526703 0.04951343 -0.03887782
000240 e0 17 95 3d 2b 0d 13 3e fa 4e 8b bd 31 8d 95 3d
       0.072799444 0.14360492 -0.06802173 0.07302321
000250 dc 5c ff bc af a9 af bd a9 2c 40 bd c6 56 e7 3d
       -0.031172208 -0.085772865 -0.04691759 0.112958476
000260 d8 e3 b0 3d 19 12 21 3d 5d 71 10 bc 74 0e da 3b
       0.08637208 0.0393239 -0.00881609 0.006654555
000270 a8 20 85 3d db ea 1d be c4 e5 8d 3d 22 d7 de 3d
       0.06500369 -0.15421622 0.0692859 0.10880877
000280 25 db ad 3d 02 04 ab 3d 00 8a 1c be 51 ae 86 bd
       0.08489064 0.08350374 -0.15287018 -0.06576217
000290 87 0a 8e be 6b 47 3e bc c5 e3 2b bb 87 fa 99 3d
       -0.27742407 -0.011613707 -0.002622829 0.075184874
0002a0 b8 e4 d3 bc 81 a3 13 3c 0b 88 5b be 35 67 d1 39
       -0.025865898 0.00901115 -0.21438615 0.00039940482
0002b0 db c0 a0 bd a4 2e 92 bd 0b 87 70 3d 40 77 37 3d
       -0.07849284 -0.07137802 0.058722537 0.04479146
0002c0 eb fe eb bd 06 3e 1f be 18 26 bc bd 65 95 a7 3d
       -0.11523231 -0.15551004 -0.09186953 0.081827916
0002d0 9a 76 7e 3e b2 be f8 bd 40 0d 8b 3c 38 c0 b9 3d
       0.2484993 -0.12145747 0.016974092 0.09069866
0002e0 c8 b5 8d 3b f0 42 b4 bb 1b 61 86 bd d4 05 d2 3d
       0.0043246485 -0.0055011436 -0.0656149 0.10255018
0002f0 4d 7f 1a 3e 96 9e 5a 3e f2 21 8f 3d 33 da 9e 3d
       0.15087624 0.21349558 0.069888964 0.07756462
000300 9f 89 64 3c f3 37 49 3d a4 c2 d6 bd 2e ba b5 ba
       0.013948827 0.049125623 -0.104863435 -0.001386469
000310 68 92 3b bd c3 55 e4 3d db d5 12 3d ec d2 9a 3c
       -0.04579392 0.1114917 0.03584848 0.018899404
000320 74 27 c4 3d 88 19 fa 3d bb bb ae 3d 2c 31 4c 3d
       0.095778376 0.12211901 0.085319005 0.04985158
000330 43 dd 9b bd f6 d2 5b be 80 98 49 bd 43 05 3a 3d
       -0.07610562 -0.21467194 -0.0492177 0.045415174
000340 7f 67 bc bd 68 71 b3 3c b5 ab da bd 8f bf f3 3c
       -0.09199428 0.021904662 -0.10677282 0.029754428
000350 fb 2e 19 3e 00 65 2e 3e 85 46 46 bc c9 48 a3 3c
       0.14959328 0.17030716 -0.012101774 0.019932168
000360 5f 9e f2 bc 09 f7 18 bc 6c 72 f6 3c 02 36 a9 bc
       -0.029616533 -0.0093362415 0.030083857 -0.020655636
000370 28 09 ca 3d a2 d6 5e bd 08 4c e8 3d dc e6 1b 3d
       0.09865028 -0.05440391 0.11342627 0.03806196
000380 25 1a 11 bd 54 62 d1 bc 52 f4 05 3e e9 23 27 ba
       -0.035425324 -0.025559582 0.13081482 -0.00063758955
000390 2e 48 25 3d 24 13 31 be 45 15 2e be 49 3e 79 bd
       0.04035204 -0.17292458 -0.17000301 -0.060850415
0003a0 1a 45 ef 3d a1 54 4f bd 05 cd 2c 3d 6d 58 50 be
       0.11683102 -0.050617818 0.04218771 -0.20346232
0003b0 30 58 71 be 95 49 04 3e ad d1 1e bc d9 76 fb 3d
       -0.23568797 0.12918694 -0.009693545 0.12278528
0003c0 1c 7c 48 bd 65 8c a3 bb 00 90 e6 bd 43 59 c1 3c
       -0.048946485 -0.0049911016 -0.112579346 0.023602134
0003d0 12 64 1a 3c 01 f7 32 3d b6 b5 9b bd 56 65 12 be
       0.009423273 0.043692593 -0.07603018 -0.14296469
0003e0 64 4a 84 3d 6e bf 28 be d3 29 ce bc 39 f7 a4 bd
       0.064595014 -0.16479275 -0.025166428 -0.080549665
0003f0 f8 64 db bc 08 d5 0e 3d 10 e2 00 be 47 1e 9a bc
       -0.026781544 0.03487113 -0.12586236 -0.018813265

fc2.bias f4 [84]
000000 95 6f 04 bd 11 07 89 3b 4a d3 41 3c 4c 59 fa bc
       -0.032332975 0.0041817506 0.01183016 -0.030560158
000010 d4 7b d6 3c 26 d3 d5 3d 02 73 c7 bd 05 e4 85 3d
       0.026182093 0.10440664 -0.09738733 0.06537632
000020 1a 50 0e bd 28 ef 15 3d 94 19 5b bc e0 29 70 bd
       -0.03474436 0.03660503 -0.0133727975 -0.058633685
000030 d6 c3 a7 3c be 6c c6 bc 1c 3f 6d 3d 67 96 64 3d
       0.020479124 -0.024221774 0.057921514 0.055807497
000040 1f 0f dd bd d7 46 f5 bd 25 de 34 be ce ae aa 3c
       -0.107939 -0.11976402 -0.17662866 0.020835306
000050 3d 90 c6 bd 1e 1c 77 bd 53 64 56 bd 43 06 bb 3d
       -0.0969548 -0.06032955 -0.05234177 0.09132054
000060 d5 f7 71 bd 99 9d cd 3d cf c0 01 3e f6 c5 b4 3d
       -0.05907424 0.10039825 0.12671207 0.088268206
000070 a0 58 09 3d 7f 3b 19 be c1 27 8c bd 35 f0 d4 bd
       0.033531785 -0.14964102 -0.0684352 -0.10397378
000080 6d 67 b1 b9 79 fe 2c be 16 74 66 3b f2 c1 58 be
       -0.0003383713 -0.16893949 0.0035164407 -0.21167734
000090 14 2a 62 3d 6f ca 32 bd 02 6d 81 3d 40 64 97 bd
       0.05521591 -0.043650087 0.0631962 -0.07392168
0000a0 38 d7 3a 3d d8 9f ef bd e9 b1 cc bc 3c 78 2b bd
       0.045615405 -0.1170041 -0.024987178 -0.04186271
0000b0 f5 33 ff bd d5 4d 01 3e 5b 11 c0 3a 8c 30 00 3e
       -0.12461082 0.12627347 0.001465361 0.12518519
0000c0 36 2e 72 bd 94 e0 ea bc 10 d7 01 3e 13 a7 81 3d
       -0.0591261 -0.02867154 0.12679696 0.06330695
0000d0 f3 25 4d be 4b 89 c7 bd 94 3e 1e 3d c3 f5 f4 3c
       -0.20034008 -0.097429834 0.038633898 0.029902345
0000e0 0b 49 b8 bd e5 ea b9 3c 40 dc 6f bd 3b fd 13 3d
       -0.08998307 0.022695014 -0.058559656 0.03613017
0000f0 0f 04 30 be 54 ac 39 bd d9 93 f7 bc 47 5a 88 bd
       -0.17189048 -0.04533036 -0.030221866 -0.06657844
000100 1d ec 3c 3c 9a 82 bd 3d bc 4c aa 3d c9 4e 40 3d
       0.011530903 0.09253426 0.08315417 0.046950135
000110 a2 d4 a8 3c 80 8f 0e bd 00 9f e0 bd 98 ec b3 bd
       0.020609204 -0.03480482 -0.10967827 -0.08785361
000120 5f 6d b4 3c ad 20 3f 3e c6 f8 ab bd 6a 9f 9e bd
       0.022024808 0.18664809 -0.08397059 -0.077452496
000130 03 a1 de 3d 3e 14 9b 3d d1 52 94 bd c8 3c 1d bc
       0.10870554 0.0757222 -0.072423585 -0.009597011
000140 02 1f bb 3c 1d 27 c3 bd fd 29 09 be 07 c6 aa 3d
       0.022841934 -0.09528945 -0.13394924 0.08338552

fc3.weight f4 [10, 84]
000000 48 1e 20 3c 11 0a 4f be e3 b5 0b be 17 1a 28 be
       0.009772845 -0.20218684 -0.13643603 -0.16416202
000010 34 77 5f be f0 79 a3 be e1 9a 1c bd c8 d7 48 be
       -0.21822816 -0.31928968 -0.03823364 -0.19613564
000020 5f 7f 8b be 60 66 aa 3d 60 61 29 be 71 90 ca bc
       -0.27245614 0.08320308 -0.16541052 -0.024727078
000030 80 08 28 3e d7 48 41 be 9f 2b 15 3e f0 25 f2 3d
       0.16409492 -0.18875442 0.14567421 0.11823642
000040 80 e9 78 be 08 8c 5e 3d 80 b0 6b bd 5c 57 81 bd
       -0.24307823 0.054332763 -0.05754137 -0.063154906
000050 58 d6 00 3e a1 ac 0a be 16 8d d0 3d ec 92 c6 3d
       0.12581766 -0.13542415 0.1018316 0.09695992
000060 b8 84 38 be 40 7b 5c 3d ae 7c d2 bc 3f 96 35 bd
       -0.18019378 0.053828478 -0.025694218 -0.04433274
000070 2a c4 b4 be a2 e1 ac 3c 4d 7a 44 be aa bb c2 3d
       -0.3530591 0.021103684 -0.19187279 0.0950845
000080 ca e9 ec bc 3e 06 b2 bd 6d 0a 12 bc 20 e2 04 be
       -0.028920073 -0.08692597 -0.0089136185 -0.12976885
000090 d3 23 ca bc f7 b5 c3 bc 0d 58 02 3e 0a e4 48 be
       -0.024675285 -0.023890479 0.12728901 -0.1961824
0000a0 ec b6 37 be e4 20 54 3d e2 49 29 be c5 1c 3f be
       -0.17940873 0.05178918 -0.1653209 -0.18663318
0000b0 f7 da ce bd 0f 17 a4 3d 00 3c a5 3c 20 ea 9f be
       -0.10100358 0.080122106 0.020170212 -0.3123331
0000c0 e3 c5 6a 3d 34 32 9b 3d ae a1 19 be 40 93 0b 3e
       0.057317626 0.07577935 -0.15003082 0.1363039
0000d0 59 c4 df bd c8 67 28 be 66 8d 0d be d7 7b 1a be
       -0.10926122 -0.1644584 -0.1382347 -0.15086304
0000e0 a4 d5 59 be 6e df 46 be 15 31 93 3d 4b 89 79 be
       -0.21272904 -0.19421169 0.07187096 -0.2436878
0000f0 ca ef 63 3c fd 4d c2 3d b2 85 82 3d 94 8f c5 bd
       0.013912151 0.09487531 0.063731566 -0.09646526
000100 82 be 38 be fe 44 a3 3c ac 40 15 3e 7e 0b 53 be
       -0.18041423 0.019930359 0.14575452 -0.20609853
000110 2f ac 89 3d 1b 47 62 be 69 8e 06 be 5b 57 43 be
       0.067222945 -0.22097437 -0.13140263 -0.19076292
000120 86 cf 07 bc 66 3c 86 be cd 12 6a 3b 1b 52 86 3d
       -0.008289224 -0.26217955 0.0035716773 0.06558629
000130 49 8b 3a 3e 66 8e d2 bd db c1 d1 bd 93 ff a1 be
       0.18217196 -0.102810666 -0.10242053 -0.316403
000140 9f 8f 26 3c cb 5d 01 be 93 f8 2e bd e4 e1 00 3e
       0.010166078 -0.12633435 -0.042717528 0.1258617
000150 80 4f f3 3d 46 0b 08 be 0f 84 95 bd 67 a1 91 bc
       0.11880398 -0.1328555 -0.07300579 -0.017777158
000160 5a f0 a8 be 4d 1b 1d 3e f7 47 8c 3d 50 e8 04 3e
       -0.32995874 0.15342446 0.06849664 0.12979245
000170 43 47 5f 3d 96 a3 79 3d 7c 28 07 3e 56 3a 8c be
       0.05451132 0.060947023 0.13199037 -0.27388257
000180 3f d2 3b be c3 77 0e 3d 83 34 73 be 0b 50 85 3d
       -0.18341921 0.034782182 -0.237505 0.065094076
000190 8b f3 84 3c 5b 7f bc bd f7 3b 92 bd a9 57 63 be
       0.016229412 -0.09203979 -0.07140344 -0.22201408
0001a0 ce 50 fe bd cc ed ac be f4 6c 67 bd f6 2d 54 be
       -0.12417756 -0.33775175 -0.05650039 -0.20720658
0001b0 9d f0 8d 3c 64 40 68 bc d5 d5 d2 bd 50 96 cd 3d
       0.017326647 -0.014175508 -0.102946915 0.100384355
0001c0 06 46 87 3c 40 b3 06 bf e8 68 48 be 4d 28 9d 3d
       0.016512882 -0.52617264 -0.19571269 0.076737024
0001d0 e5 79 0a be e2 12 72 bd eb 90 8c bc 3a f6 8a be
       -0.13523062 -0.05910004 -0.017158946 -0.2714098
0001e0 0f 16 8e bd 36 8b 8f bc a3 28 86 3d c4 b2 c7 3d
       -0.06937801 -0.017522436 0.065507196 0.09750894
0001f0 fb 7c bf 3b b1 2d 72 be 8a c6 0a 3c 76 1f a1 bd
       0.0058437563 -0.23650242 0.008470187 -0.07867329
000200 73 71 b3 be b0 90 23 3d 7f 99 ab 3a 06 6d c8 3d
       -0.35047492 0.039932907 0.001309201 0.097864196
000210 40 c5 64 be c2 18 22 be 1a b1 c7 3d 3a 9d ce 3d
       -0.2234087 -0.15829757 0.09750576 0.10088582
000220 49 14 a8 bc d0 15 e3 be 10 ed 41 3d 50 a6 94 bd
       -0.020517485 -0.4435258 0.04734522 -0.07258284
000230 dc 11 b1 3d a1 3d e6 3d 97 8d 62 be 3f 59 a6 bd
       0.086459845 0.112422235 -0.22124325 -0.08122491
000240 be ac 5f be 38 db e4 bd b6 0f f4 ba c1 be 00 be
       -0.2184324 -0.11174625 -0.0018620405 -0.12572767
000250 be 05 d0 bd d9 97 1f 3e 99 0d 3d 3e 19 1d 66 be
       -0.10157345 0.15585269 0.18462218 -0.22472037
000260 36 a2 99 bd 59 2e 81 3d 9b 29 3b be 3a 61 8a bc
       -0.075016424 0.06307668 -0.1827759 -0.016892064
000270 e6 06 26 be 4d 57 aa 3d 6d fd 6b be 09 d4 80 3d
       -0.16213569 0.083174326 -0.23045893 0.062904425
000280 48 0c 44 3d cf e6 67 bd 13 98 bd bc 49 f4 29 be
       0.047863275 -0.0566166 -0.023143804 -0.16597094
000290 4b c2 d1 3d 0b 10 1e be 0c ed 39 be f9 7e 35 be
       0.102421366 -0.15435807 -0.18156832 -0.17724217
0002a0 3e 8d 8d 3b f6 f8 97 3d 29 db 27 be 3f 24 0b be
       0.004319816 0.074205324 -0.16392197 -0.13588046
0002b0 e7 e6 5b bd db 35 65 bd f0 04 6e bd 38 c2 01 be
       -0.053687003 -0.055959564 -0.058110178 -0.12671745
0002c0 3e da da bd 01 23 0b bb 20 0a 00 3e 39 23 0f be
       -0.10686158 -0.002123058 0.12503862 -0.1397828
0002d0 0e fa 30 3d ce 40 df 3d 57 e7 d7 bb 82 8e 31 bb
       0.04320722 0.109010324 -0.006588857 -0.0027092998
0002e0 45 87 36 be 09 60 a0 be b5 64 6f bd fa 24 1a 3e
       -0.17825039 -0.3132327 -0.05844565 0.15053168
0002f0 78 9d a1 bd 6d aa 0c be 0e 16 2d 3d 58 77 9f bd
       -0.07891363 -0.13736887 0.04225736 -0.07786435
000300 b1 67 5f bd 0b 2c e4 bd f7 a7 10 3d 36 dc 17 3d
       -0.054542247 -0.11141213 0.035316434 0.037075244
000310 39 22 2b 3e e3 00 7e 3d c9 a0 b1 bd 2d 76 07 be
       0.16712274 0.062012564 -0.086732455 -0.13228674
000320 78 36 98 3d fc 37 02 be 74 3b e7 bc 8e 56 50 be
       0.07432264 -0.12716669 -0.028226592 -0.20345518
000330 a6 05 39 3d 9e a0 60 3d 88 6c c9 3d d7 79 98 be
       0.045171402 0.054840676 0.09835154 -0.29780456
000340 89 52 a5 3c 40 d1 19 3d 57 2f ec bc b4 45 42 3d
       0.020180957 0.037553072 -0.028831167 0.047429755
000350 ab 15 bf 3c dd 83 9c bc 13 d0 e8 b9 74 4b a7 be
       0.023325762 -0.019105846 -0.00044405516 -0.32674754
000360 d2 e6 36 3e 84 9b 89 3d e0 73 0e be 8b 42 95 3d
       0.17861488 0.067191154 -0.1391139 0.07288083
000370 56 f6 29 3d 28 d4 27 bc da a3 8a 3d 40 56 1d bd
       0.04149469 -0.010243453 0.067695335 -0.038412333
000380 15 05 a1 be 95 f5 0c 3e 1e 59 91 be e8 ec 66 3e
       -0.3144919 0.13765557 -0.28388304 0.2255131
000390 c7 3e 3b bd 05 62 08 be 3f df be 3d 34 21 e9 3c
       -0.045714166 -0.13318641 0.093199246 0.028458215
0003a0 0e 15 73 3d 49 08 6f 3d 08 dd 13 bd e8 dd e9 bd
       0.05934625 0.05835751 -0.036099464 -0.114192784
0003b0 24 f6 41 be 1b 6e a0 3c 24 a9 55 be 8b 38 1e bd
       -0.18941551 0.019583752 -0.20865303 -0.038628142
0003c0 13 c9 76 bd ca 2e 2a be 30 30 91 3a f5 82 52 be
       -0.060250353 -0.16619411 0.0011076983 -0.20557769
0003d0 cf 03 1a be 9d 70 00 3e f7 e2 4c bc 11 16 2c 3d
       -0.15040515 0.12542959 -0.0125052845 0.04201323
0003e0 49 ef 91 3d d6 0a a3 bd da 43 6a bd dc fe 06 be
       0.07125718 -0.07961051 -0.057193615 -0.13183159
0003f0 e4 26 7a bb 60 31 97 3d 43 44 12 bf 6c 9f 3f bf
       -0.0038170153 0.073824644 -0.5713541 -0.74852633

fc3.bias f4 [10]
000000 2b 4f ca bb 46 f0 24 bd 63 d4 b1 bd 73 ab ad 3d
       -0.0061739883 -0.040268205 -0.08683088 0.08479967
000010 a0 e6 cf bd b5 cc 74 bc d6 b9 4a be c5 ad 8e 3d
       -0.1015141 -0.014941384 -0.19797453 0.06966738
000020 de 68 b5 3d eb 23 a4 bd
       0.088578925 -0.08014663
